{"class_name": "Model", "keras_version": "2.0.8", "config": {"layers": [{"class_name": "InputLayer", "config": {"dtype": "float32", "batch_input_shape": [null, 416, 416, 3], "name": "input_1", "sparse": false}, "inbound_nodes": [], "name": "input_1"}, {"class_name": "Conv2D", "config": {"kernel_constraint": null, "kernel_initializer": {"class_name": "VarianceScaling", "config": {"distribution": "uniform", "scale": 1.0, "seed": null, "mode": "fan_avg"}}, "name": "conv2d_1", "bias_regularizer": null, "bias_constraint": null, "activation": "linear", "trainable": true, "data_format": "channels_last", "padding": "same", "strides": [1, 1], "dilation_rate": [1, 1], "kernel_regularizer": {"class_name": "L1L2", "config": {"l2": 0.0005000000237487257, "l1": 0.0}}, "filters": 32, "bias_initializer": {"class_name": "Zeros", "config": {}}, "use_bias": false, "activity_regularizer": null, "kernel_size": [3, 3]}, "inbound_nodes": [[["input_1", 0, 0, {}]]], "name": "conv2d_1"}, {"class_name": "BatchNormalization", "config": {"beta_constraint": null, "gamma_initializer": {"class_name": "Ones", "config": {}}, "moving_mean_initializer": {"class_name": "Zeros", "config": {}}, "name": "batch_normalization_1", "epsilon": 0.001, "trainable": true, "moving_variance_initializer": {"class_name": "Ones", "config": {}}, "beta_initializer": {"class_name": "Zeros", "config": {}}, "scale": true, "axis": -1, "gamma_constraint": null, "gamma_regularizer": null, "beta_regularizer": null, "momentum": 0.99, "center": true}, "inbound_nodes": [[["conv2d_1", 0, 0, {}]]], "name": "batch_normalization_1"}, {"class_name": "LeakyReLU", "config": {"alpha": 0.10000000149011612, "trainable": true, "name": "leaky_re_lu_1"}, "inbound_nodes": [[["batch_normalization_1", 0, 0, {}]]], "name": "leaky_re_lu_1"}, {"class_name": "ZeroPadding2D", "config": {"padding": [[1, 0], [1, 0]], "trainable": true, "name": "zero_padding2d_1", "data_format": "channels_last"}, "inbound_nodes": [[["leaky_re_lu_1", 0, 0, {}]]], "name": "zero_padding2d_1"}, {"class_name": "Conv2D", "config": {"kernel_constraint": null, "kernel_initializer": {"class_name": "VarianceScaling", "config": {"distribution": "uniform", "scale": 1.0, "seed": null, "mode": "fan_avg"}}, "name": "conv2d_2", "bias_regularizer": null, "bias_constraint": null, "activation": "linear", "trainable": true, "data_format": "channels_last", "padding": "valid", "strides": [2, 2], "dilation_rate": [1, 1], "kernel_regularizer": {"class_name": "L1L2", "config": {"l2": 0.0005000000237487257, "l1": 0.0}}, "filters": 64, "bias_initializer": {"class_name": "Zeros", "config": {}}, "use_bias": false, "activity_regularizer": null, "kernel_size": [3, 3]}, "inbound_nodes": [[["zero_padding2d_1", 0, 0, {}]]], "name": "conv2d_2"}, {"class_name": "BatchNormalization", "config": {"beta_constraint": null, "gamma_initializer": {"class_name": "Ones", "config": {}}, "moving_mean_initializer": {"class_name": "Zeros", "config": {}}, "name": "batch_normalization_2", "epsilon": 0.001, "trainable": true, "moving_variance_initializer": {"class_name": "Ones", "config": {}}, "beta_initializer": {"class_name": "Zeros", "config": {}}, "scale": true, "axis": -1, "gamma_constraint": null, "gamma_regularizer": null, "beta_regularizer": null, "momentum": 0.99, "center": true}, "inbound_nodes": [[["conv2d_2", 0, 0, {}]]], "name": "batch_normalization_2"}, {"class_name": "LeakyReLU", "config": {"alpha": 0.10000000149011612, "trainable": true, "name": "leaky_re_lu_2"}, "inbound_nodes": [[["batch_normalization_2", 0, 0, {}]]], "name": "leaky_re_lu_2"}, {"class_name": "Conv2D", "config": {"kernel_constraint": null, "kernel_initializer": {"class_name": "VarianceScaling", "config": {"distribution": "uniform", "scale": 1.0, "seed": null, "mode": "fan_avg"}}, "name": "conv2d_3", "bias_regularizer": null, "bias_constraint": null, "activation": "linear", "trainable": true, "data_format": "channels_last", "padding": "same", "strides": [1, 1], "dilation_rate": [1, 1], "kernel_regularizer": {"class_name": "L1L2", "config": {"l2": 0.0005000000237487257, "l1": 0.0}}, "filters": 32, "bias_initializer": {"class_name": "Zeros", "config": {}}, "use_bias": false, "activity_regularizer": null, "kernel_size": [1, 1]}, "inbound_nodes": [[["leaky_re_lu_2", 0, 0, {}]]], "name": "conv2d_3"}, {"class_name": "BatchNormalization", "config": {"beta_constraint": null, "gamma_initializer": {"class_name": "Ones", "config": {}}, "moving_mean_initializer": {"class_name": "Zeros", "config": {}}, "name": "batch_normalization_3", "epsilon": 0.001, "trainable": true, "moving_variance_initializer": {"class_name": "Ones", "config": {}}, "beta_initializer": {"class_name": "Zeros", "config": {}}, "scale": true, "axis": -1, "gamma_constraint": null, "gamma_regularizer": null, "beta_regularizer": null, "momentum": 0.99, "center": true}, "inbound_nodes": [[["conv2d_3", 0, 0, {}]]], "name": "batch_normalization_3"}, {"class_name": "LeakyReLU", "config": {"alpha": 0.10000000149011612, "trainable": true, "name": "leaky_re_lu_3"}, "inbound_nodes": [[["batch_normalization_3", 0, 0, {}]]], "name": "leaky_re_lu_3"}, {"class_name": "Conv2D", "config": {"kernel_constraint": null, "kernel_initializer": {"class_name": "VarianceScaling", "config": {"distribution": "uniform", "scale": 1.0, "seed": null, "mode": "fan_avg"}}, "name": "conv2d_4", "bias_regularizer": null, "bias_constraint": null, "activation": "linear", "trainable": true, "data_format": "channels_last", "padding": "same", "strides": [1, 1], "dilation_rate": [1, 1], "kernel_regularizer": {"class_name": "L1L2", "config": {"l2": 0.0005000000237487257, "l1": 0.0}}, "filters": 64, "bias_initializer": {"class_name": "Zeros", "config": {}}, "use_bias": false, "activity_regularizer": null, "kernel_size": [3, 3]}, "inbound_nodes": [[["leaky_re_lu_3", 0, 0, {}]]], "name": "conv2d_4"}, {"class_name": "BatchNormalization", "config": {"beta_constraint": null, "gamma_initializer": {"class_name": "Ones", "config": {}}, "moving_mean_initializer": {"class_name": "Zeros", "config": {}}, "name": "batch_normalization_4", "epsilon": 0.001, "trainable": true, "moving_variance_initializer": {"class_name": "Ones", "config": {}}, "beta_initializer": {"class_name": "Zeros", "config": {}}, "scale": true, "axis": -1, "gamma_constraint": null, "gamma_regularizer": null, "beta_regularizer": null, "momentum": 0.99, "center": true}, "inbound_nodes": [[["conv2d_4", 0, 0, {}]]], "name": "batch_normalization_4"}, {"class_name": "LeakyReLU", "config": {"alpha": 0.10000000149011612, "trainable": true, "name": "leaky_re_lu_4"}, "inbound_nodes": [[["batch_normalization_4", 0, 0, {}]]], "name": "leaky_re_lu_4"}, {"class_name": "Add", "config": {"trainable": true, "name": "add_1"}, "inbound_nodes": [[["leaky_re_lu_2", 0, 0, {}], ["leaky_re_lu_4", 0, 0, {}]]], "name": "add_1"}, {"class_name": "Activation", "config": {"activation": "linear", "trainable": true, "name": "activation_1"}, "inbound_nodes": [[["add_1", 0, 0, {}]]], "name": "activation_1"}, {"class_name": "ZeroPadding2D", "config": {"padding": [[1, 0], [1, 0]], "trainable": true, "name": "zero_padding2d_2", "data_format": "channels_last"}, "inbound_nodes": [[["activation_1", 0, 0, {}]]], "name": "zero_padding2d_2"}, {"class_name": "Conv2D", "config": {"kernel_constraint": null, "kernel_initializer": {"class_name": "VarianceScaling", "config": {"distribution": "uniform", "scale": 1.0, "seed": null, "mode": "fan_avg"}}, "name": "conv2d_5", "bias_regularizer": null, "bias_constraint": null, "activation": "linear", "trainable": true, "data_format": "channels_last", "padding": "valid", "strides": [2, 2], "dilation_rate": [1, 1], "kernel_regularizer": {"class_name": "L1L2", "config": {"l2": 0.0005000000237487257, "l1": 0.0}}, "filters": 128, "bias_initializer": {"class_name": "Zeros", "config": {}}, "use_bias": false, "activity_regularizer": null, "kernel_size": [3, 3]}, "inbound_nodes": [[["zero_padding2d_2", 0, 0, {}]]], "name": "conv2d_5"}, {"class_name": "BatchNormalization", "config": {"beta_constraint": null, "gamma_initializer": {"class_name": "Ones", "config": {}}, "moving_mean_initializer": {"class_name": "Zeros", "config": {}}, "name": "batch_normalization_5", "epsilon": 0.001, "trainable": true, "moving_variance_initializer": {"class_name": "Ones", "config": {}}, "beta_initializer": {"class_name": "Zeros", "config": {}}, "scale": true, "axis": -1, "gamma_constraint": null, "gamma_regularizer": null, "beta_regularizer": null, "momentum": 0.99, "center": true}, "inbound_nodes": [[["conv2d_5", 0, 0, {}]]], "name": "batch_normalization_5"}, {"class_name": "LeakyReLU", "config": {"alpha": 0.10000000149011612, "trainable": true, "name": "leaky_re_lu_5"}, "inbound_nodes": [[["batch_normalization_5", 0, 0, {}]]], "name": "leaky_re_lu_5"}, {"class_name": "Conv2D", "config": {"kernel_constraint": null, "kernel_initializer": {"class_name": "VarianceScaling", "config": {"distribution": "uniform", "scale": 1.0, "seed": null, "mode": "fan_avg"}}, "name": "conv2d_6", "bias_regularizer": null, "bias_constraint": null, "activation": "linear", "trainable": true, "data_format": "channels_last", "padding": "same", "strides": [1, 1], "dilation_rate": [1, 1], "kernel_regularizer": {"class_name": "L1L2", "config": {"l2": 0.0005000000237487257, "l1": 0.0}}, "filters": 64, "bias_initializer": {"class_name": "Zeros", "config": {}}, "use_bias": false, "activity_regularizer": null, "kernel_size": [1, 1]}, "inbound_nodes": [[["leaky_re_lu_5", 0, 0, {}]]], "name": "conv2d_6"}, {"class_name": "BatchNormalization", "config": {"beta_constraint": null, "gamma_initializer": {"class_name": "Ones", "config": {}}, "moving_mean_initializer": {"class_name": "Zeros", "config": {}}, "name": "batch_normalization_6", "epsilon": 0.001, "trainable": true, "moving_variance_initializer": {"class_name": "Ones", "config": {}}, "beta_initializer": {"class_name": "Zeros", "config": {}}, "scale": true, "axis": -1, "gamma_constraint": null, "gamma_regularizer": null, "beta_regularizer": null, "momentum": 0.99, "center": true}, "inbound_nodes": [[["conv2d_6", 0, 0, {}]]], "name": "batch_normalization_6"}, {"class_name": "LeakyReLU", "config": {"alpha": 0.10000000149011612, "trainable": true, "name": "leaky_re_lu_6"}, "inbound_nodes": [[["batch_normalization_6", 0, 0, {}]]], "name": "leaky_re_lu_6"}, {"class_name": "Conv2D", "config": {"kernel_constraint": null, "kernel_initializer": {"class_name": "VarianceScaling", "config": {"distribution": "uniform", "scale": 1.0, "seed": null, "mode": "fan_avg"}}, "name": "conv2d_7", "bias_regularizer": null, "bias_constraint": null, "activation": "linear", "trainable": true, "data_format": "channels_last", "padding": "same", "strides": [1, 1], "dilation_rate": [1, 1], "kernel_regularizer": {"class_name": "L1L2", "config": {"l2": 0.0005000000237487257, "l1": 0.0}}, "filters": 128, "bias_initializer": {"class_name": "Zeros", "config": {}}, "use_bias": false, "activity_regularizer": null, "kernel_size": [3, 3]}, "inbound_nodes": [[["leaky_re_lu_6", 0, 0, {}]]], "name": "conv2d_7"}, {"class_name": "BatchNormalization", "config": {"beta_constraint": null, "gamma_initializer": {"class_name": "Ones", "config": {}}, "moving_mean_initializer": {"class_name": "Zeros", "config": {}}, "name": "batch_normalization_7", "epsilon": 0.001, "trainable": true, "moving_variance_initializer": {"class_name": "Ones", "config": {}}, "beta_initializer": {"class_name": "Zeros", "config": {}}, "scale": true, "axis": -1, "gamma_constraint": null, "gamma_regularizer": null, "beta_regularizer": null, "momentum": 0.99, "center": true}, "inbound_nodes": [[["conv2d_7", 0, 0, {}]]], "name": "batch_normalization_7"}, {"class_name": "LeakyReLU", "config": {"alpha": 0.10000000149011612, "trainable": true, "name": "leaky_re_lu_7"}, "inbound_nodes": [[["batch_normalization_7", 0, 0, {}]]], "name": "leaky_re_lu_7"}, {"class_name": "Add", "config": {"trainable": true, "name": "add_2"}, "inbound_nodes": [[["leaky_re_lu_5", 0, 0, {}], ["leaky_re_lu_7", 0, 0, {}]]], "name": "add_2"}, {"class_name": "Activation", "config": {"activation": "linear", "trainable": true, "name": "activation_2"}, "inbound_nodes": [[["add_2", 0, 0, {}]]], "name": "activation_2"}, {"class_name": "Conv2D", "config": {"kernel_constraint": null, "kernel_initializer": {"class_name": "VarianceScaling", "config": {"distribution": "uniform", "scale": 1.0, "seed": null, "mode": "fan_avg"}}, "name": "conv2d_8", "bias_regularizer": null, "bias_constraint": null, "activation": "linear", "trainable": true, "data_format": "channels_last", "padding": "same", "strides": [1, 1], "dilation_rate": [1, 1], "kernel_regularizer": {"class_name": "L1L2", "config": {"l2": 0.0005000000237487257, "l1": 0.0}}, "filters": 64, "bias_initializer": {"class_name": "Zeros", "config": {}}, "use_bias": false, "activity_regularizer": null, "kernel_size": [1, 1]}, "inbound_nodes": [[["activation_2", 0, 0, {}]]], "name": "conv2d_8"}, {"class_name": "BatchNormalization", "config": {"beta_constraint": null, "gamma_initializer": {"class_name": "Ones", "config": {}}, "moving_mean_initializer": {"class_name": "Zeros", "config": {}}, "name": "batch_normalization_8", "epsilon": 0.001, "trainable": true, "moving_variance_initializer": {"class_name": "Ones", "config": {}}, "beta_initializer": {"class_name": "Zeros", "config": {}}, "scale": true, "axis": -1, "gamma_constraint": null, "gamma_regularizer": null, "beta_regularizer": null, "momentum": 0.99, "center": true}, "inbound_nodes": [[["conv2d_8", 0, 0, {}]]], "name": "batch_normalization_8"}, {"class_name": "LeakyReLU", "config": {"alpha": 0.10000000149011612, "trainable": true, "name": "leaky_re_lu_8"}, "inbound_nodes": [[["batch_normalization_8", 0, 0, {}]]], "name": "leaky_re_lu_8"}, {"class_name": "Conv2D", "config": {"kernel_constraint": null, "kernel_initializer": {"class_name": "VarianceScaling", "config": {"distribution": "uniform", "scale": 1.0, "seed": null, "mode": "fan_avg"}}, "name": "conv2d_9", "bias_regularizer": null, "bias_constraint": null, "activation": "linear", "trainable": true, "data_format": "channels_last", "padding": "same", "strides": [1, 1], "dilation_rate": [1, 1], "kernel_regularizer": {"class_name": "L1L2", "config": {"l2": 0.0005000000237487257, "l1": 0.0}}, "filters": 128, "bias_initializer": {"class_name": "Zeros", "config": {}}, "use_bias": false, "activity_regularizer": null, "kernel_size": [3, 3]}, "inbound_nodes": [[["leaky_re_lu_8", 0, 0, {}]]], "name": "conv2d_9"}, {"class_name": "BatchNormalization", "config": {"beta_constraint": null, "gamma_initializer": {"class_name": "Ones", "config": {}}, "moving_mean_initializer": {"class_name": "Zeros", "config": {}}, "name": "batch_normalization_9", "epsilon": 0.001, "trainable": true, "moving_variance_initializer": {"class_name": "Ones", "config": {}}, "beta_initializer": {"class_name": "Zeros", "config": {}}, "scale": true, "axis": -1, "gamma_constraint": null, "gamma_regularizer": null, "beta_regularizer": null, "momentum": 0.99, "center": true}, "inbound_nodes": [[["conv2d_9", 0, 0, {}]]], "name": "batch_normalization_9"}, {"class_name": "LeakyReLU", "config": {"alpha": 0.10000000149011612, "trainable": true, "name": "leaky_re_lu_9"}, "inbound_nodes": [[["batch_normalization_9", 0, 0, {}]]], "name": "leaky_re_lu_9"}, {"class_name": "Add", "config": {"trainable": true, "name": "add_3"}, "inbound_nodes": [[["activation_2", 0, 0, {}], ["leaky_re_lu_9", 0, 0, {}]]], "name": "add_3"}, {"class_name": "Activation", "config": {"activation": "linear", "trainable": true, "name": "activation_3"}, "inbound_nodes": [[["add_3", 0, 0, {}]]], "name": "activation_3"}, {"class_name": "ZeroPadding2D", "config": {"padding": [[1, 0], [1, 0]], "trainable": true, "name": "zero_padding2d_3", "data_format": "channels_last"}, "inbound_nodes": [[["activation_3", 0, 0, {}]]], "name": "zero_padding2d_3"}, {"class_name": "Conv2D", "config": {"kernel_constraint": null, "kernel_initializer": {"class_name": "VarianceScaling", "config": {"distribution": "uniform", "scale": 1.0, "seed": null, "mode": "fan_avg"}}, "name": "conv2d_10", "bias_regularizer": null, "bias_constraint": null, "activation": "linear", "trainable": true, "data_format": "channels_last", "padding": "valid", "strides": [2, 2], "dilation_rate": [1, 1], "kernel_regularizer": {"class_name": "L1L2", "config": {"l2": 0.0005000000237487257, "l1": 0.0}}, "filters": 256, "bias_initializer": {"class_name": "Zeros", "config": {}}, "use_bias": false, "activity_regularizer": null, "kernel_size": [3, 3]}, "inbound_nodes": [[["zero_padding2d_3", 0, 0, {}]]], "name": "conv2d_10"}, {"class_name": "BatchNormalization", "config": {"beta_constraint": null, "gamma_initializer": {"class_name": "Ones", "config": {}}, "moving_mean_initializer": {"class_name": "Zeros", "config": {}}, "name": "batch_normalization_10", "epsilon": 0.001, "trainable": true, "moving_variance_initializer": {"class_name": "Ones", "config": {}}, "beta_initializer": {"class_name": "Zeros", "config": {}}, "scale": true, "axis": -1, "gamma_constraint": null, "gamma_regularizer": null, "beta_regularizer": null, "momentum": 0.99, "center": true}, "inbound_nodes": [[["conv2d_10", 0, 0, {}]]], "name": "batch_normalization_10"}, {"class_name": "LeakyReLU", "config": {"alpha": 0.10000000149011612, "trainable": true, "name": "leaky_re_lu_10"}, "inbound_nodes": [[["batch_normalization_10", 0, 0, {}]]], "name": "leaky_re_lu_10"}, {"class_name": "Conv2D", "config": {"kernel_constraint": null, "kernel_initializer": {"class_name": "VarianceScaling", "config": {"distribution": "uniform", "scale": 1.0, "seed": null, "mode": "fan_avg"}}, "name": "conv2d_11", "bias_regularizer": null, "bias_constraint": null, "activation": "linear", "trainable": true, "data_format": "channels_last", "padding": "same", "strides": [1, 1], "dilation_rate": [1, 1], "kernel_regularizer": {"class_name": "L1L2", "config": {"l2": 0.0005000000237487257, "l1": 0.0}}, "filters": 128, "bias_initializer": {"class_name": "Zeros", "config": {}}, "use_bias": false, "activity_regularizer": null, "kernel_size": [1, 1]}, "inbound_nodes": [[["leaky_re_lu_10", 0, 0, {}]]], "name": "conv2d_11"}, {"class_name": "BatchNormalization", "config": {"beta_constraint": null, "gamma_initializer": {"class_name": "Ones", "config": {}}, "moving_mean_initializer": {"class_name": "Zeros", "config": {}}, "name": "batch_normalization_11", "epsilon": 0.001, "trainable": true, "moving_variance_initializer": {"class_name": "Ones", "config": {}}, "beta_initializer": {"class_name": "Zeros", "config": {}}, "scale": true, "axis": -1, "gamma_constraint": null, "gamma_regularizer": null, "beta_regularizer": null, "momentum": 0.99, "center": true}, "inbound_nodes": [[["conv2d_11", 0, 0, {}]]], "name": "batch_normalization_11"}, {"class_name": "LeakyReLU", "config": {"alpha": 0.10000000149011612, "trainable": true, "name": "leaky_re_lu_11"}, "inbound_nodes": [[["batch_normalization_11", 0, 0, {}]]], "name": "leaky_re_lu_11"}, {"class_name": "Conv2D", "config": {"kernel_constraint": null, "kernel_initializer": {"class_name": "VarianceScaling", "config": {"distribution": "uniform", "scale": 1.0, "seed": null, "mode": "fan_avg"}}, "name": "conv2d_12", "bias_regularizer": null, "bias_constraint": null, "activation": "linear", "trainable": true, "data_format": "channels_last", "padding": "same", "strides": [1, 1], "dilation_rate": [1, 1], "kernel_regularizer": {"class_name": "L1L2", "config": {"l2": 0.0005000000237487257, "l1": 0.0}}, "filters": 256, "bias_initializer": {"class_name": "Zeros", "config": {}}, "use_bias": false, "activity_regularizer": null, "kernel_size": [3, 3]}, "inbound_nodes": [[["leaky_re_lu_11", 0, 0, {}]]], "name": "conv2d_12"}, {"class_name": "BatchNormalization", "config": {"beta_constraint": null, "gamma_initializer": {"class_name": "Ones", "config": {}}, "moving_mean_initializer": {"class_name": "Zeros", "config": {}}, "name": "batch_normalization_12", "epsilon": 0.001, "trainable": true, "moving_variance_initializer": {"class_name": "Ones", "config": {}}, "beta_initializer": {"class_name": "Zeros", "config": {}}, "scale": true, "axis": -1, "gamma_constraint": null, "gamma_regularizer": null, "beta_regularizer": null, "momentum": 0.99, "center": true}, "inbound_nodes": [[["conv2d_12", 0, 0, {}]]], "name": "batch_normalization_12"}, {"class_name": "LeakyReLU", "config": {"alpha": 0.10000000149011612, "trainable": true, "name": "leaky_re_lu_12"}, "inbound_nodes": [[["batch_normalization_12", 0, 0, {}]]], "name": "leaky_re_lu_12"}, {"class_name": "Add", "config": {"trainable": true, "name": "add_4"}, "inbound_nodes": [[["leaky_re_lu_10", 0, 0, {}], ["leaky_re_lu_12", 0, 0, {}]]], "name": "add_4"}, {"class_name": "Activation", "config": {"activation": "linear", "trainable": true, "name": "activation_4"}, "inbound_nodes": [[["add_4", 0, 0, {}]]], "name": "activation_4"}, {"class_name": "Conv2D", "config": {"kernel_constraint": null, "kernel_initializer": {"class_name": "VarianceScaling", "config": {"distribution": "uniform", "scale": 1.0, "seed": null, "mode": "fan_avg"}}, "name": "conv2d_13", "bias_regularizer": null, "bias_constraint": null, "activation": "linear", "trainable": true, "data_format": "channels_last", "padding": "same", "strides": [1, 1], "dilation_rate": [1, 1], "kernel_regularizer": {"class_name": "L1L2", "config": {"l2": 0.0005000000237487257, "l1": 0.0}}, "filters": 128, "bias_initializer": {"class_name": "Zeros", "config": {}}, "use_bias": false, "activity_regularizer": null, "kernel_size": [1, 1]}, "inbound_nodes": [[["activation_4", 0, 0, {}]]], "name": "conv2d_13"}, {"class_name": "BatchNormalization", "config": {"beta_constraint": null, "gamma_initializer": {"class_name": "Ones", "config": {}}, "moving_mean_initializer": {"class_name": "Zeros", "config": {}}, "name": "batch_normalization_13", "epsilon": 0.001, "trainable": true, "moving_variance_initializer": {"class_name": "Ones", "config": {}}, "beta_initializer": {"class_name": "Zeros", "config": {}}, "scale": true, "axis": -1, "gamma_constraint": null, "gamma_regularizer": null, "beta_regularizer": null, "momentum": 0.99, "center": true}, "inbound_nodes": [[["conv2d_13", 0, 0, {}]]], "name": "batch_normalization_13"}, {"class_name": "LeakyReLU", "config": {"alpha": 0.10000000149011612, "trainable": true, "name": "leaky_re_lu_13"}, "inbound_nodes": [[["batch_normalization_13", 0, 0, {}]]], "name": "leaky_re_lu_13"}, {"class_name": "Conv2D", "config": {"kernel_constraint": null, "kernel_initializer": {"class_name": "VarianceScaling", "config": {"distribution": "uniform", "scale": 1.0, "seed": null, "mode": "fan_avg"}}, "name": "conv2d_14", "bias_regularizer": null, "bias_constraint": null, "activation": "linear", "trainable": true, "data_format": "channels_last", "padding": "same", "strides": [1, 1], "dilation_rate": [1, 1], "kernel_regularizer": {"class_name": "L1L2", "config": {"l2": 0.0005000000237487257, "l1": 0.0}}, "filters": 256, "bias_initializer": {"class_name": "Zeros", "config": {}}, "use_bias": false, "activity_regularizer": null, "kernel_size": [3, 3]}, "inbound_nodes": [[["leaky_re_lu_13", 0, 0, {}]]], "name": "conv2d_14"}, {"class_name": "BatchNormalization", "config": {"beta_constraint": null, "gamma_initializer": {"class_name": "Ones", "config": {}}, "moving_mean_initializer": {"class_name": "Zeros", "config": {}}, "name": "batch_normalization_14", "epsilon": 0.001, "trainable": true, "moving_variance_initializer": {"class_name": "Ones", "config": {}}, "beta_initializer": {"class_name": "Zeros", "config": {}}, "scale": true, "axis": -1, "gamma_constraint": null, "gamma_regularizer": null, "beta_regularizer": null, "momentum": 0.99, "center": true}, "inbound_nodes": [[["conv2d_14", 0, 0, {}]]], "name": "batch_normalization_14"}, {"class_name": "LeakyReLU", "config": {"alpha": 0.10000000149011612, "trainable": true, "name": "leaky_re_lu_14"}, "inbound_nodes": [[["batch_normalization_14", 0, 0, {}]]], "name": "leaky_re_lu_14"}, {"class_name": "Add", "config": {"trainable": true, "name": "add_5"}, "inbound_nodes": [[["activation_4", 0, 0, {}], ["leaky_re_lu_14", 0, 0, {}]]], "name": "add_5"}, {"class_name": "Activation", "config": {"activation": "linear", "trainable": true, "name": "activation_5"}, "inbound_nodes": [[["add_5", 0, 0, {}]]], "name": "activation_5"}, {"class_name": "Conv2D", "config": {"kernel_constraint": null, "kernel_initializer": {"class_name": "VarianceScaling", "config": {"distribution": "uniform", "scale": 1.0, "seed": null, "mode": "fan_avg"}}, "name": "conv2d_15", "bias_regularizer": null, "bias_constraint": null, "activation": "linear", "trainable": true, "data_format": "channels_last", "padding": "same", "strides": [1, 1], "dilation_rate": [1, 1], "kernel_regularizer": {"class_name": "L1L2", "config": {"l2": 0.0005000000237487257, "l1": 0.0}}, "filters": 128, "bias_initializer": {"class_name": "Zeros", "config": {}}, "use_bias": false, "activity_regularizer": null, "kernel_size": [1, 1]}, "inbound_nodes": [[["activation_5", 0, 0, {}]]], "name": "conv2d_15"}, {"class_name": "BatchNormalization", "config": {"beta_constraint": null, "gamma_initializer": {"class_name": "Ones", "config": {}}, "moving_mean_initializer": {"class_name": "Zeros", "config": {}}, "name": "batch_normalization_15", "epsilon": 0.001, "trainable": true, "moving_variance_initializer": {"class_name": "Ones", "config": {}}, "beta_initializer": {"class_name": "Zeros", "config": {}}, "scale": true, "axis": -1, "gamma_constraint": null, "gamma_regularizer": null, "beta_regularizer": null, "momentum": 0.99, "center": true}, "inbound_nodes": [[["conv2d_15", 0, 0, {}]]], "name": "batch_normalization_15"}, {"class_name": "LeakyReLU", "config": {"alpha": 0.10000000149011612, "trainable": true, "name": "leaky_re_lu_15"}, "inbound_nodes": [[["batch_normalization_15", 0, 0, {}]]], "name": "leaky_re_lu_15"}, {"class_name": "Conv2D", "config": {"kernel_constraint": null, "kernel_initializer": {"class_name": "VarianceScaling", "config": {"distribution": "uniform", "scale": 1.0, "seed": null, "mode": "fan_avg"}}, "name": "conv2d_16", "bias_regularizer": null, "bias_constraint": null, "activation": "linear", "trainable": true, "data_format": "channels_last", "padding": "same", "strides": [1, 1], "dilation_rate": [1, 1], "kernel_regularizer": {"class_name": "L1L2", "config": {"l2": 0.0005000000237487257, "l1": 0.0}}, "filters": 256, "bias_initializer": {"class_name": "Zeros", "config": {}}, "use_bias": false, "activity_regularizer": null, "kernel_size": [3, 3]}, "inbound_nodes": [[["leaky_re_lu_15", 0, 0, {}]]], "name": "conv2d_16"}, {"class_name": "BatchNormalization", "config": {"beta_constraint": null, "gamma_initializer": {"class_name": "Ones", "config": {}}, "moving_mean_initializer": {"class_name": "Zeros", "config": {}}, "name": "batch_normalization_16", "epsilon": 0.001, "trainable": true, "moving_variance_initializer": {"class_name": "Ones", "config": {}}, "beta_initializer": {"class_name": "Zeros", "config": {}}, "scale": true, "axis": -1, "gamma_constraint": null, "gamma_regularizer": null, "beta_regularizer": null, "momentum": 0.99, "center": true}, "inbound_nodes": [[["conv2d_16", 0, 0, {}]]], "name": "batch_normalization_16"}, {"class_name": "LeakyReLU", "config": {"alpha": 0.10000000149011612, "trainable": true, "name": "leaky_re_lu_16"}, "inbound_nodes": [[["batch_normalization_16", 0, 0, {}]]], "name": "leaky_re_lu_16"}, {"class_name": "Add", "config": {"trainable": true, "name": "add_6"}, "inbound_nodes": [[["activation_5", 0, 0, {}], ["leaky_re_lu_16", 0, 0, {}]]], "name": "add_6"}, {"class_name": "Activation", "config": {"activation": "linear", "trainable": true, "name": "activation_6"}, "inbound_nodes": [[["add_6", 0, 0, {}]]], "name": "activation_6"}, {"class_name": "Conv2D", "config": {"kernel_constraint": null, "kernel_initializer": {"class_name": "VarianceScaling", "config": {"distribution": "uniform", "scale": 1.0, "seed": null, "mode": "fan_avg"}}, "name": "conv2d_17", "bias_regularizer": null, "bias_constraint": null, "activation": "linear", "trainable": true, "data_format": "channels_last", "padding": "same", "strides": [1, 1], "dilation_rate": [1, 1], "kernel_regularizer": {"class_name": "L1L2", "config": {"l2": 0.0005000000237487257, "l1": 0.0}}, "filters": 128, "bias_initializer": {"class_name": "Zeros", "config": {}}, "use_bias": false, "activity_regularizer": null, "kernel_size": [1, 1]}, "inbound_nodes": [[["activation_6", 0, 0, {}]]], "name": "conv2d_17"}, {"class_name": "BatchNormalization", "config": {"beta_constraint": null, "gamma_initializer": {"class_name": "Ones", "config": {}}, "moving_mean_initializer": {"class_name": "Zeros", "config": {}}, "name": "batch_normalization_17", "epsilon": 0.001, "trainable": true, "moving_variance_initializer": {"class_name": "Ones", "config": {}}, "beta_initializer": {"class_name": "Zeros", "config": {}}, "scale": true, "axis": -1, "gamma_constraint": null, "gamma_regularizer": null, "beta_regularizer": null, "momentum": 0.99, "center": true}, "inbound_nodes": [[["conv2d_17", 0, 0, {}]]], "name": "batch_normalization_17"}, {"class_name": "LeakyReLU", "config": {"alpha": 0.10000000149011612, "trainable": true, "name": "leaky_re_lu_17"}, "inbound_nodes": [[["batch_normalization_17", 0, 0, {}]]], "name": "leaky_re_lu_17"}, {"class_name": "Conv2D", "config": {"kernel_constraint": null, "kernel_initializer": {"class_name": "VarianceScaling", "config": {"distribution": "uniform", "scale": 1.0, "seed": null, "mode": "fan_avg"}}, "name": "conv2d_18", "bias_regularizer": null, "bias_constraint": null, "activation": "linear", "trainable": true, "data_format": "channels_last", "padding": "same", "strides": [1, 1], "dilation_rate": [1, 1], "kernel_regularizer": {"class_name": "L1L2", "config": {"l2": 0.0005000000237487257, "l1": 0.0}}, "filters": 256, "bias_initializer": {"class_name": "Zeros", "config": {}}, "use_bias": false, "activity_regularizer": null, "kernel_size": [3, 3]}, "inbound_nodes": [[["leaky_re_lu_17", 0, 0, {}]]], "name": "conv2d_18"}, {"class_name": "BatchNormalization", "config": {"beta_constraint": null, "gamma_initializer": {"class_name": "Ones", "config": {}}, "moving_mean_initializer": {"class_name": "Zeros", "config": {}}, "name": "batch_normalization_18", "epsilon": 0.001, "trainable": true, "moving_variance_initializer": {"class_name": "Ones", "config": {}}, "beta_initializer": {"class_name": "Zeros", "config": {}}, "scale": true, "axis": -1, "gamma_constraint": null, "gamma_regularizer": null, "beta_regularizer": null, "momentum": 0.99, "center": true}, "inbound_nodes": [[["conv2d_18", 0, 0, {}]]], "name": "batch_normalization_18"}, {"class_name": "LeakyReLU", "config": {"alpha": 0.10000000149011612, "trainable": true, "name": "leaky_re_lu_18"}, "inbound_nodes": [[["batch_normalization_18", 0, 0, {}]]], "name": "leaky_re_lu_18"}, {"class_name": "Add", "config": {"trainable": true, "name": "add_7"}, "inbound_nodes": [[["activation_6", 0, 0, {}], ["leaky_re_lu_18", 0, 0, {}]]], "name": "add_7"}, {"class_name": "Activation", "config": {"activation": "linear", "trainable": true, "name": "activation_7"}, "inbound_nodes": [[["add_7", 0, 0, {}]]], "name": "activation_7"}, {"class_name": "Conv2D", "config": {"kernel_constraint": null, "kernel_initializer": {"class_name": "VarianceScaling", "config": {"distribution": "uniform", "scale": 1.0, "seed": null, "mode": "fan_avg"}}, "name": "conv2d_19", "bias_regularizer": null, "bias_constraint": null, "activation": "linear", "trainable": true, "data_format": "channels_last", "padding": "same", "strides": [1, 1], "dilation_rate": [1, 1], "kernel_regularizer": {"class_name": "L1L2", "config": {"l2": 0.0005000000237487257, "l1": 0.0}}, "filters": 128, "bias_initializer": {"class_name": "Zeros", "config": {}}, "use_bias": false, "activity_regularizer": null, "kernel_size": [1, 1]}, "inbound_nodes": [[["activation_7", 0, 0, {}]]], "name": "conv2d_19"}, {"class_name": "BatchNormalization", "config": {"beta_constraint": null, "gamma_initializer": {"class_name": "Ones", "config": {}}, "moving_mean_initializer": {"class_name": "Zeros", "config": {}}, "name": "batch_normalization_19", "epsilon": 0.001, "trainable": true, "moving_variance_initializer": {"class_name": "Ones", "config": {}}, "beta_initializer": {"class_name": "Zeros", "config": {}}, "scale": true, "axis": -1, "gamma_constraint": null, "gamma_regularizer": null, "beta_regularizer": null, "momentum": 0.99, "center": true}, "inbound_nodes": [[["conv2d_19", 0, 0, {}]]], "name": "batch_normalization_19"}, {"class_name": "LeakyReLU", "config": {"alpha": 0.10000000149011612, "trainable": true, "name": "leaky_re_lu_19"}, "inbound_nodes": [[["batch_normalization_19", 0, 0, {}]]], "name": "leaky_re_lu_19"}, {"class_name": "Conv2D", "config": {"kernel_constraint": null, "kernel_initializer": {"class_name": "VarianceScaling", "config": {"distribution": "uniform", "scale": 1.0, "seed": null, "mode": "fan_avg"}}, "name": "conv2d_20", "bias_regularizer": null, "bias_constraint": null, "activation": "linear", "trainable": true, "data_format": "channels_last", "padding": "same", "strides": [1, 1], "dilation_rate": [1, 1], "kernel_regularizer": {"class_name": "L1L2", "config": {"l2": 0.0005000000237487257, "l1": 0.0}}, "filters": 256, "bias_initializer": {"class_name": "Zeros", "config": {}}, "use_bias": false, "activity_regularizer": null, "kernel_size": [3, 3]}, "inbound_nodes": [[["leaky_re_lu_19", 0, 0, {}]]], "name": "conv2d_20"}, {"class_name": "BatchNormalization", "config": {"beta_constraint": null, "gamma_initializer": {"class_name": "Ones", "config": {}}, "moving_mean_initializer": {"class_name": "Zeros", "config": {}}, "name": "batch_normalization_20", "epsilon": 0.001, "trainable": true, "moving_variance_initializer": {"class_name": "Ones", "config": {}}, "beta_initializer": {"class_name": "Zeros", "config": {}}, "scale": true, "axis": -1, "gamma_constraint": null, "gamma_regularizer": null, "beta_regularizer": null, "momentum": 0.99, "center": true}, "inbound_nodes": [[["conv2d_20", 0, 0, {}]]], "name": "batch_normalization_20"}, {"class_name": "LeakyReLU", "config": {"alpha": 0.10000000149011612, "trainable": true, "name": "leaky_re_lu_20"}, "inbound_nodes": [[["batch_normalization_20", 0, 0, {}]]], "name": "leaky_re_lu_20"}, {"class_name": "Add", "config": {"trainable": true, "name": "add_8"}, "inbound_nodes": [[["activation_7", 0, 0, {}], ["leaky_re_lu_20", 0, 0, {}]]], "name": "add_8"}, {"class_name": "Activation", "config": {"activation": "linear", "trainable": true, "name": "activation_8"}, "inbound_nodes": [[["add_8", 0, 0, {}]]], "name": "activation_8"}, {"class_name": "Conv2D", "config": {"kernel_constraint": null, "kernel_initializer": {"class_name": "VarianceScaling", "config": {"distribution": "uniform", "scale": 1.0, "seed": null, "mode": "fan_avg"}}, "name": "conv2d_21", "bias_regularizer": null, "bias_constraint": null, "activation": "linear", "trainable": true, "data_format": "channels_last", "padding": "same", "strides": [1, 1], "dilation_rate": [1, 1], "kernel_regularizer": {"class_name": "L1L2", "config": {"l2": 0.0005000000237487257, "l1": 0.0}}, "filters": 128, "bias_initializer": {"class_name": "Zeros", "config": {}}, "use_bias": false, "activity_regularizer": null, "kernel_size": [1, 1]}, "inbound_nodes": [[["activation_8", 0, 0, {}]]], "name": "conv2d_21"}, {"class_name": "BatchNormalization", "config": {"beta_constraint": null, "gamma_initializer": {"class_name": "Ones", "config": {}}, "moving_mean_initializer": {"class_name": "Zeros", "config": {}}, "name": "batch_normalization_21", "epsilon": 0.001, "trainable": true, "moving_variance_initializer": {"class_name": "Ones", "config": {}}, "beta_initializer": {"class_name": "Zeros", "config": {}}, "scale": true, "axis": -1, "gamma_constraint": null, "gamma_regularizer": null, "beta_regularizer": null, "momentum": 0.99, "center": true}, "inbound_nodes": [[["conv2d_21", 0, 0, {}]]], "name": "batch_normalization_21"}, {"class_name": "LeakyReLU", "config": {"alpha": 0.10000000149011612, "trainable": true, "name": "leaky_re_lu_21"}, "inbound_nodes": [[["batch_normalization_21", 0, 0, {}]]], "name": "leaky_re_lu_21"}, {"class_name": "Conv2D", "config": {"kernel_constraint": null, "kernel_initializer": {"class_name": "VarianceScaling", "config": {"distribution": "uniform", "scale": 1.0, "seed": null, "mode": "fan_avg"}}, "name": "conv2d_22", "bias_regularizer": null, "bias_constraint": null, "activation": "linear", "trainable": true, "data_format": "channels_last", "padding": "same", "strides": [1, 1], "dilation_rate": [1, 1], "kernel_regularizer": {"class_name": "L1L2", "config": {"l2": 0.0005000000237487257, "l1": 0.0}}, "filters": 256, "bias_initializer": {"class_name": "Zeros", "config": {}}, "use_bias": false, "activity_regularizer": null, "kernel_size": [3, 3]}, "inbound_nodes": [[["leaky_re_lu_21", 0, 0, {}]]], "name": "conv2d_22"}, {"class_name": "BatchNormalization", "config": {"beta_constraint": null, "gamma_initializer": {"class_name": "Ones", "config": {}}, "moving_mean_initializer": {"class_name": "Zeros", "config": {}}, "name": "batch_normalization_22", "epsilon": 0.001, "trainable": true, "moving_variance_initializer": {"class_name": "Ones", "config": {}}, "beta_initializer": {"class_name": "Zeros", "config": {}}, "scale": true, "axis": -1, "gamma_constraint": null, "gamma_regularizer": null, "beta_regularizer": null, "momentum": 0.99, "center": true}, "inbound_nodes": [[["conv2d_22", 0, 0, {}]]], "name": "batch_normalization_22"}, {"class_name": "LeakyReLU", "config": {"alpha": 0.10000000149011612, "trainable": true, "name": "leaky_re_lu_22"}, "inbound_nodes": [[["batch_normalization_22", 0, 0, {}]]], "name": "leaky_re_lu_22"}, {"class_name": "Add", "config": {"trainable": true, "name": "add_9"}, "inbound_nodes": [[["activation_8", 0, 0, {}], ["leaky_re_lu_22", 0, 0, {}]]], "name": "add_9"}, {"class_name": "Activation", "config": {"activation": "linear", "trainable": true, "name": "activation_9"}, "inbound_nodes": [[["add_9", 0, 0, {}]]], "name": "activation_9"}, {"class_name": "Conv2D", "config": {"kernel_constraint": null, "kernel_initializer": {"class_name": "VarianceScaling", "config": {"distribution": "uniform", "scale": 1.0, "seed": null, "mode": "fan_avg"}}, "name": "conv2d_23", "bias_regularizer": null, "bias_constraint": null, "activation": "linear", "trainable": true, "data_format": "channels_last", "padding": "same", "strides": [1, 1], "dilation_rate": [1, 1], "kernel_regularizer": {"class_name": "L1L2", "config": {"l2": 0.0005000000237487257, "l1": 0.0}}, "filters": 128, "bias_initializer": {"class_name": "Zeros", "config": {}}, "use_bias": false, "activity_regularizer": null, "kernel_size": [1, 1]}, "inbound_nodes": [[["activation_9", 0, 0, {}]]], "name": "conv2d_23"}, {"class_name": "BatchNormalization", "config": {"beta_constraint": null, "gamma_initializer": {"class_name": "Ones", "config": {}}, "moving_mean_initializer": {"class_name": "Zeros", "config": {}}, "name": "batch_normalization_23", "epsilon": 0.001, "trainable": true, "moving_variance_initializer": {"class_name": "Ones", "config": {}}, "beta_initializer": {"class_name": "Zeros", "config": {}}, "scale": true, "axis": -1, "gamma_constraint": null, "gamma_regularizer": null, "beta_regularizer": null, "momentum": 0.99, "center": true}, "inbound_nodes": [[["conv2d_23", 0, 0, {}]]], "name": "batch_normalization_23"}, {"class_name": "LeakyReLU", "config": {"alpha": 0.10000000149011612, "trainable": true, "name": "leaky_re_lu_23"}, "inbound_nodes": [[["batch_normalization_23", 0, 0, {}]]], "name": "leaky_re_lu_23"}, {"class_name": "Conv2D", "config": {"kernel_constraint": null, "kernel_initializer": {"class_name": "VarianceScaling", "config": {"distribution": "uniform", "scale": 1.0, "seed": null, "mode": "fan_avg"}}, "name": "conv2d_24", "bias_regularizer": null, "bias_constraint": null, "activation": "linear", "trainable": true, "data_format": "channels_last", "padding": "same", "strides": [1, 1], "dilation_rate": [1, 1], "kernel_regularizer": {"class_name": "L1L2", "config": {"l2": 0.0005000000237487257, "l1": 0.0}}, "filters": 256, "bias_initializer": {"class_name": "Zeros", "config": {}}, "use_bias": false, "activity_regularizer": null, "kernel_size": [3, 3]}, "inbound_nodes": [[["leaky_re_lu_23", 0, 0, {}]]], "name": "conv2d_24"}, {"class_name": "BatchNormalization", "config": {"beta_constraint": null, "gamma_initializer": {"class_name": "Ones", "config": {}}, "moving_mean_initializer": {"class_name": "Zeros", "config": {}}, "name": "batch_normalization_24", "epsilon": 0.001, "trainable": true, "moving_variance_initializer": {"class_name": "Ones", "config": {}}, "beta_initializer": {"class_name": "Zeros", "config": {}}, "scale": true, "axis": -1, "gamma_constraint": null, "gamma_regularizer": null, "beta_regularizer": null, "momentum": 0.99, "center": true}, "inbound_nodes": [[["conv2d_24", 0, 0, {}]]], "name": "batch_normalization_24"}, {"class_name": "LeakyReLU", "config": {"alpha": 0.10000000149011612, "trainable": true, "name": "leaky_re_lu_24"}, "inbound_nodes": [[["batch_normalization_24", 0, 0, {}]]], "name": "leaky_re_lu_24"}, {"class_name": "Add", "config": {"trainable": true, "name": "add_10"}, "inbound_nodes": [[["activation_9", 0, 0, {}], ["leaky_re_lu_24", 0, 0, {}]]], "name": "add_10"}, {"class_name": "Activation", "config": {"activation": "linear", "trainable": true, "name": "activation_10"}, "inbound_nodes": [[["add_10", 0, 0, {}]]], "name": "activation_10"}, {"class_name": "Conv2D", "config": {"kernel_constraint": null, "kernel_initializer": {"class_name": "VarianceScaling", "config": {"distribution": "uniform", "scale": 1.0, "seed": null, "mode": "fan_avg"}}, "name": "conv2d_25", "bias_regularizer": null, "bias_constraint": null, "activation": "linear", "trainable": true, "data_format": "channels_last", "padding": "same", "strides": [1, 1], "dilation_rate": [1, 1], "kernel_regularizer": {"class_name": "L1L2", "config": {"l2": 0.0005000000237487257, "l1": 0.0}}, "filters": 128, "bias_initializer": {"class_name": "Zeros", "config": {}}, "use_bias": false, "activity_regularizer": null, "kernel_size": [1, 1]}, "inbound_nodes": [[["activation_10", 0, 0, {}]]], "name": "conv2d_25"}, {"class_name": "BatchNormalization", "config": {"beta_constraint": null, "gamma_initializer": {"class_name": "Ones", "config": {}}, "moving_mean_initializer": {"class_name": "Zeros", "config": {}}, "name": "batch_normalization_25", "epsilon": 0.001, "trainable": true, "moving_variance_initializer": {"class_name": "Ones", "config": {}}, "beta_initializer": {"class_name": "Zeros", "config": {}}, "scale": true, "axis": -1, "gamma_constraint": null, "gamma_regularizer": null, "beta_regularizer": null, "momentum": 0.99, "center": true}, "inbound_nodes": [[["conv2d_25", 0, 0, {}]]], "name": "batch_normalization_25"}, {"class_name": "LeakyReLU", "config": {"alpha": 0.10000000149011612, "trainable": true, "name": "leaky_re_lu_25"}, "inbound_nodes": [[["batch_normalization_25", 0, 0, {}]]], "name": "leaky_re_lu_25"}, {"class_name": "Conv2D", "config": {"kernel_constraint": null, "kernel_initializer": {"class_name": "VarianceScaling", "config": {"distribution": "uniform", "scale": 1.0, "seed": null, "mode": "fan_avg"}}, "name": "conv2d_26", "bias_regularizer": null, "bias_constraint": null, "activation": "linear", "trainable": true, "data_format": "channels_last", "padding": "same", "strides": [1, 1], "dilation_rate": [1, 1], "kernel_regularizer": {"class_name": "L1L2", "config": {"l2": 0.0005000000237487257, "l1": 0.0}}, "filters": 256, "bias_initializer": {"class_name": "Zeros", "config": {}}, "use_bias": false, "activity_regularizer": null, "kernel_size": [3, 3]}, "inbound_nodes": [[["leaky_re_lu_25", 0, 0, {}]]], "name": "conv2d_26"}, {"class_name": "BatchNormalization", "config": {"beta_constraint": null, "gamma_initializer": {"class_name": "Ones", "config": {}}, "moving_mean_initializer": {"class_name": "Zeros", "config": {}}, "name": "batch_normalization_26", "epsilon": 0.001, "trainable": true, "moving_variance_initializer": {"class_name": "Ones", "config": {}}, "beta_initializer": {"class_name": "Zeros", "config": {}}, "scale": true, "axis": -1, "gamma_constraint": null, "gamma_regularizer": null, "beta_regularizer": null, "momentum": 0.99, "center": true}, "inbound_nodes": [[["conv2d_26", 0, 0, {}]]], "name": "batch_normalization_26"}, {"class_name": "LeakyReLU", "config": {"alpha": 0.10000000149011612, "trainable": true, "name": "leaky_re_lu_26"}, "inbound_nodes": [[["batch_normalization_26", 0, 0, {}]]], "name": "leaky_re_lu_26"}, {"class_name": "Add", "config": {"trainable": true, "name": "add_11"}, "inbound_nodes": [[["activation_10", 0, 0, {}], ["leaky_re_lu_26", 0, 0, {}]]], "name": "add_11"}, {"class_name": "Activation", "config": {"activation": "linear", "trainable": true, "name": "activation_11"}, "inbound_nodes": [[["add_11", 0, 0, {}]]], "name": "activation_11"}, {"class_name": "ZeroPadding2D", "config": {"padding": [[1, 0], [1, 0]], "trainable": true, "name": "zero_padding2d_4", "data_format": "channels_last"}, "inbound_nodes": [[["activation_11", 0, 0, {}]]], "name": "zero_padding2d_4"}, {"class_name": "Conv2D", "config": {"kernel_constraint": null, "kernel_initializer": {"class_name": "VarianceScaling", "config": {"distribution": "uniform", "scale": 1.0, "seed": null, "mode": "fan_avg"}}, "name": "conv2d_27", "bias_regularizer": null, "bias_constraint": null, "activation": "linear", "trainable": true, "data_format": "channels_last", "padding": "valid", "strides": [2, 2], "dilation_rate": [1, 1], "kernel_regularizer": {"class_name": "L1L2", "config": {"l2": 0.0005000000237487257, "l1": 0.0}}, "filters": 512, "bias_initializer": {"class_name": "Zeros", "config": {}}, "use_bias": false, "activity_regularizer": null, "kernel_size": [3, 3]}, "inbound_nodes": [[["zero_padding2d_4", 0, 0, {}]]], "name": "conv2d_27"}, {"class_name": "BatchNormalization", "config": {"beta_constraint": null, "gamma_initializer": {"class_name": "Ones", "config": {}}, "moving_mean_initializer": {"class_name": "Zeros", "config": {}}, "name": "batch_normalization_27", "epsilon": 0.001, "trainable": true, "moving_variance_initializer": {"class_name": "Ones", "config": {}}, "beta_initializer": {"class_name": "Zeros", "config": {}}, "scale": true, "axis": -1, "gamma_constraint": null, "gamma_regularizer": null, "beta_regularizer": null, "momentum": 0.99, "center": true}, "inbound_nodes": [[["conv2d_27", 0, 0, {}]]], "name": "batch_normalization_27"}, {"class_name": "LeakyReLU", "config": {"alpha": 0.10000000149011612, "trainable": true, "name": "leaky_re_lu_27"}, "inbound_nodes": [[["batch_normalization_27", 0, 0, {}]]], "name": "leaky_re_lu_27"}, {"class_name": "Conv2D", "config": {"kernel_constraint": null, "kernel_initializer": {"class_name": "VarianceScaling", "config": {"distribution": "uniform", "scale": 1.0, "seed": null, "mode": "fan_avg"}}, "name": "conv2d_28", "bias_regularizer": null, "bias_constraint": null, "activation": "linear", "trainable": true, "data_format": "channels_last", "padding": "same", "strides": [1, 1], "dilation_rate": [1, 1], "kernel_regularizer": {"class_name": "L1L2", "config": {"l2": 0.0005000000237487257, "l1": 0.0}}, "filters": 256, "bias_initializer": {"class_name": "Zeros", "config": {}}, "use_bias": false, "activity_regularizer": null, "kernel_size": [1, 1]}, "inbound_nodes": [[["leaky_re_lu_27", 0, 0, {}]]], "name": "conv2d_28"}, {"class_name": "BatchNormalization", "config": {"beta_constraint": null, "gamma_initializer": {"class_name": "Ones", "config": {}}, "moving_mean_initializer": {"class_name": "Zeros", "config": {}}, "name": "batch_normalization_28", "epsilon": 0.001, "trainable": true, "moving_variance_initializer": {"class_name": "Ones", "config": {}}, "beta_initializer": {"class_name": "Zeros", "config": {}}, "scale": true, "axis": -1, "gamma_constraint": null, "gamma_regularizer": null, "beta_regularizer": null, "momentum": 0.99, "center": true}, "inbound_nodes": [[["conv2d_28", 0, 0, {}]]], "name": "batch_normalization_28"}, {"class_name": "LeakyReLU", "config": {"alpha": 0.10000000149011612, "trainable": true, "name": "leaky_re_lu_28"}, "inbound_nodes": [[["batch_normalization_28", 0, 0, {}]]], "name": "leaky_re_lu_28"}, {"class_name": "Conv2D", "config": {"kernel_constraint": null, "kernel_initializer": {"class_name": "VarianceScaling", "config": {"distribution": "uniform", "scale": 1.0, "seed": null, "mode": "fan_avg"}}, "name": "conv2d_29", "bias_regularizer": null, "bias_constraint": null, "activation": "linear", "trainable": true, "data_format": "channels_last", "padding": "same", "strides": [1, 1], "dilation_rate": [1, 1], "kernel_regularizer": {"class_name": "L1L2", "config": {"l2": 0.0005000000237487257, "l1": 0.0}}, "filters": 512, "bias_initializer": {"class_name": "Zeros", "config": {}}, "use_bias": false, "activity_regularizer": null, "kernel_size": [3, 3]}, "inbound_nodes": [[["leaky_re_lu_28", 0, 0, {}]]], "name": "conv2d_29"}, {"class_name": "BatchNormalization", "config": {"beta_constraint": null, "gamma_initializer": {"class_name": "Ones", "config": {}}, "moving_mean_initializer": {"class_name": "Zeros", "config": {}}, "name": "batch_normalization_29", "epsilon": 0.001, "trainable": true, "moving_variance_initializer": {"class_name": "Ones", "config": {}}, "beta_initializer": {"class_name": "Zeros", "config": {}}, "scale": true, "axis": -1, "gamma_constraint": null, "gamma_regularizer": null, "beta_regularizer": null, "momentum": 0.99, "center": true}, "inbound_nodes": [[["conv2d_29", 0, 0, {}]]], "name": "batch_normalization_29"}, {"class_name": "LeakyReLU", "config": {"alpha": 0.10000000149011612, "trainable": true, "name": "leaky_re_lu_29"}, "inbound_nodes": [[["batch_normalization_29", 0, 0, {}]]], "name": "leaky_re_lu_29"}, {"class_name": "Add", "config": {"trainable": true, "name": "add_12"}, "inbound_nodes": [[["leaky_re_lu_27", 0, 0, {}], ["leaky_re_lu_29", 0, 0, {}]]], "name": "add_12"}, {"class_name": "Activation", "config": {"activation": "linear", "trainable": true, "name": "activation_12"}, "inbound_nodes": [[["add_12", 0, 0, {}]]], "name": "activation_12"}, {"class_name": "Conv2D", "config": {"kernel_constraint": null, "kernel_initializer": {"class_name": "VarianceScaling", "config": {"distribution": "uniform", "scale": 1.0, "seed": null, "mode": "fan_avg"}}, "name": "conv2d_30", "bias_regularizer": null, "bias_constraint": null, "activation": "linear", "trainable": true, "data_format": "channels_last", "padding": "same", "strides": [1, 1], "dilation_rate": [1, 1], "kernel_regularizer": {"class_name": "L1L2", "config": {"l2": 0.0005000000237487257, "l1": 0.0}}, "filters": 256, "bias_initializer": {"class_name": "Zeros", "config": {}}, "use_bias": false, "activity_regularizer": null, "kernel_size": [1, 1]}, "inbound_nodes": [[["activation_12", 0, 0, {}]]], "name": "conv2d_30"}, {"class_name": "BatchNormalization", "config": {"beta_constraint": null, "gamma_initializer": {"class_name": "Ones", "config": {}}, "moving_mean_initializer": {"class_name": "Zeros", "config": {}}, "name": "batch_normalization_30", "epsilon": 0.001, "trainable": true, "moving_variance_initializer": {"class_name": "Ones", "config": {}}, "beta_initializer": {"class_name": "Zeros", "config": {}}, "scale": true, "axis": -1, "gamma_constraint": null, "gamma_regularizer": null, "beta_regularizer": null, "momentum": 0.99, "center": true}, "inbound_nodes": [[["conv2d_30", 0, 0, {}]]], "name": "batch_normalization_30"}, {"class_name": "LeakyReLU", "config": {"alpha": 0.10000000149011612, "trainable": true, "name": "leaky_re_lu_30"}, "inbound_nodes": [[["batch_normalization_30", 0, 0, {}]]], "name": "leaky_re_lu_30"}, {"class_name": "Conv2D", "config": {"kernel_constraint": null, "kernel_initializer": {"class_name": "VarianceScaling", "config": {"distribution": "uniform", "scale": 1.0, "seed": null, "mode": "fan_avg"}}, "name": "conv2d_31", "bias_regularizer": null, "bias_constraint": null, "activation": "linear", "trainable": true, "data_format": "channels_last", "padding": "same", "strides": [1, 1], "dilation_rate": [1, 1], "kernel_regularizer": {"class_name": "L1L2", "config": {"l2": 0.0005000000237487257, "l1": 0.0}}, "filters": 512, "bias_initializer": {"class_name": "Zeros", "config": {}}, "use_bias": false, "activity_regularizer": null, "kernel_size": [3, 3]}, "inbound_nodes": [[["leaky_re_lu_30", 0, 0, {}]]], "name": "conv2d_31"}, {"class_name": "BatchNormalization", "config": {"beta_constraint": null, "gamma_initializer": {"class_name": "Ones", "config": {}}, "moving_mean_initializer": {"class_name": "Zeros", "config": {}}, "name": "batch_normalization_31", "epsilon": 0.001, "trainable": true, "moving_variance_initializer": {"class_name": "Ones", "config": {}}, "beta_initializer": {"class_name": "Zeros", "config": {}}, "scale": true, "axis": -1, "gamma_constraint": null, "gamma_regularizer": null, "beta_regularizer": null, "momentum": 0.99, "center": true}, "inbound_nodes": [[["conv2d_31", 0, 0, {}]]], "name": "batch_normalization_31"}, {"class_name": "LeakyReLU", "config": {"alpha": 0.10000000149011612, "trainable": true, "name": "leaky_re_lu_31"}, "inbound_nodes": [[["batch_normalization_31", 0, 0, {}]]], "name": "leaky_re_lu_31"}, {"class_name": "Add", "config": {"trainable": true, "name": "add_13"}, "inbound_nodes": [[["activation_12", 0, 0, {}], ["leaky_re_lu_31", 0, 0, {}]]], "name": "add_13"}, {"class_name": "Activation", "config": {"activation": "linear", "trainable": true, "name": "activation_13"}, "inbound_nodes": [[["add_13", 0, 0, {}]]], "name": "activation_13"}, {"class_name": "Conv2D", "config": {"kernel_constraint": null, "kernel_initializer": {"class_name": "VarianceScaling", "config": {"distribution": "uniform", "scale": 1.0, "seed": null, "mode": "fan_avg"}}, "name": "conv2d_32", "bias_regularizer": null, "bias_constraint": null, "activation": "linear", "trainable": true, "data_format": "channels_last", "padding": "same", "strides": [1, 1], "dilation_rate": [1, 1], "kernel_regularizer": {"class_name": "L1L2", "config": {"l2": 0.0005000000237487257, "l1": 0.0}}, "filters": 256, "bias_initializer": {"class_name": "Zeros", "config": {}}, "use_bias": false, "activity_regularizer": null, "kernel_size": [1, 1]}, "inbound_nodes": [[["activation_13", 0, 0, {}]]], "name": "conv2d_32"}, {"class_name": "BatchNormalization", "config": {"beta_constraint": null, "gamma_initializer": {"class_name": "Ones", "config": {}}, "moving_mean_initializer": {"class_name": "Zeros", "config": {}}, "name": "batch_normalization_32", "epsilon": 0.001, "trainable": true, "moving_variance_initializer": {"class_name": "Ones", "config": {}}, "beta_initializer": {"class_name": "Zeros", "config": {}}, "scale": true, "axis": -1, "gamma_constraint": null, "gamma_regularizer": null, "beta_regularizer": null, "momentum": 0.99, "center": true}, "inbound_nodes": [[["conv2d_32", 0, 0, {}]]], "name": "batch_normalization_32"}, {"class_name": "LeakyReLU", "config": {"alpha": 0.10000000149011612, "trainable": true, "name": "leaky_re_lu_32"}, "inbound_nodes": [[["batch_normalization_32", 0, 0, {}]]], "name": "leaky_re_lu_32"}, {"class_name": "Conv2D", "config": {"kernel_constraint": null, "kernel_initializer": {"class_name": "VarianceScaling", "config": {"distribution": "uniform", "scale": 1.0, "seed": null, "mode": "fan_avg"}}, "name": "conv2d_33", "bias_regularizer": null, "bias_constraint": null, "activation": "linear", "trainable": true, "data_format": "channels_last", "padding": "same", "strides": [1, 1], "dilation_rate": [1, 1], "kernel_regularizer": {"class_name": "L1L2", "config": {"l2": 0.0005000000237487257, "l1": 0.0}}, "filters": 512, "bias_initializer": {"class_name": "Zeros", "config": {}}, "use_bias": false, "activity_regularizer": null, "kernel_size": [3, 3]}, "inbound_nodes": [[["leaky_re_lu_32", 0, 0, {}]]], "name": "conv2d_33"}, {"class_name": "BatchNormalization", "config": {"beta_constraint": null, "gamma_initializer": {"class_name": "Ones", "config": {}}, "moving_mean_initializer": {"class_name": "Zeros", "config": {}}, "name": "batch_normalization_33", "epsilon": 0.001, "trainable": true, "moving_variance_initializer": {"class_name": "Ones", "config": {}}, "beta_initializer": {"class_name": "Zeros", "config": {}}, "scale": true, "axis": -1, "gamma_constraint": null, "gamma_regularizer": null, "beta_regularizer": null, "momentum": 0.99, "center": true}, "inbound_nodes": [[["conv2d_33", 0, 0, {}]]], "name": "batch_normalization_33"}, {"class_name": "LeakyReLU", "config": {"alpha": 0.10000000149011612, "trainable": true, "name": "leaky_re_lu_33"}, "inbound_nodes": [[["batch_normalization_33", 0, 0, {}]]], "name": "leaky_re_lu_33"}, {"class_name": "Add", "config": {"trainable": true, "name": "add_14"}, "inbound_nodes": [[["activation_13", 0, 0, {}], ["leaky_re_lu_33", 0, 0, {}]]], "name": "add_14"}, {"class_name": "Activation", "config": {"activation": "linear", "trainable": true, "name": "activation_14"}, "inbound_nodes": [[["add_14", 0, 0, {}]]], "name": "activation_14"}, {"class_name": "Conv2D", "config": {"kernel_constraint": null, "kernel_initializer": {"class_name": "VarianceScaling", "config": {"distribution": "uniform", "scale": 1.0, "seed": null, "mode": "fan_avg"}}, "name": "conv2d_34", "bias_regularizer": null, "bias_constraint": null, "activation": "linear", "trainable": true, "data_format": "channels_last", "padding": "same", "strides": [1, 1], "dilation_rate": [1, 1], "kernel_regularizer": {"class_name": "L1L2", "config": {"l2": 0.0005000000237487257, "l1": 0.0}}, "filters": 256, "bias_initializer": {"class_name": "Zeros", "config": {}}, "use_bias": false, "activity_regularizer": null, "kernel_size": [1, 1]}, "inbound_nodes": [[["activation_14", 0, 0, {}]]], "name": "conv2d_34"}, {"class_name": "BatchNormalization", "config": {"beta_constraint": null, "gamma_initializer": {"class_name": "Ones", "config": {}}, "moving_mean_initializer": {"class_name": "Zeros", "config": {}}, "name": "batch_normalization_34", "epsilon": 0.001, "trainable": true, "moving_variance_initializer": {"class_name": "Ones", "config": {}}, "beta_initializer": {"class_name": "Zeros", "config": {}}, "scale": true, "axis": -1, "gamma_constraint": null, "gamma_regularizer": null, "beta_regularizer": null, "momentum": 0.99, "center": true}, "inbound_nodes": [[["conv2d_34", 0, 0, {}]]], "name": "batch_normalization_34"}, {"class_name": "LeakyReLU", "config": {"alpha": 0.10000000149011612, "trainable": true, "name": "leaky_re_lu_34"}, "inbound_nodes": [[["batch_normalization_34", 0, 0, {}]]], "name": "leaky_re_lu_34"}, {"class_name": "Conv2D", "config": {"kernel_constraint": null, "kernel_initializer": {"class_name": "VarianceScaling", "config": {"distribution": "uniform", "scale": 1.0, "seed": null, "mode": "fan_avg"}}, "name": "conv2d_35", "bias_regularizer": null, "bias_constraint": null, "activation": "linear", "trainable": true, "data_format": "channels_last", "padding": "same", "strides": [1, 1], "dilation_rate": [1, 1], "kernel_regularizer": {"class_name": "L1L2", "config": {"l2": 0.0005000000237487257, "l1": 0.0}}, "filters": 512, "bias_initializer": {"class_name": "Zeros", "config": {}}, "use_bias": false, "activity_regularizer": null, "kernel_size": [3, 3]}, "inbound_nodes": [[["leaky_re_lu_34", 0, 0, {}]]], "name": "conv2d_35"}, {"class_name": "BatchNormalization", "config": {"beta_constraint": null, "gamma_initializer": {"class_name": "Ones", "config": {}}, "moving_mean_initializer": {"class_name": "Zeros", "config": {}}, "name": "batch_normalization_35", "epsilon": 0.001, "trainable": true, "moving_variance_initializer": {"class_name": "Ones", "config": {}}, "beta_initializer": {"class_name": "Zeros", "config": {}}, "scale": true, "axis": -1, "gamma_constraint": null, "gamma_regularizer": null, "beta_regularizer": null, "momentum": 0.99, "center": true}, "inbound_nodes": [[["conv2d_35", 0, 0, {}]]], "name": "batch_normalization_35"}, {"class_name": "LeakyReLU", "config": {"alpha": 0.10000000149011612, "trainable": true, "name": "leaky_re_lu_35"}, "inbound_nodes": [[["batch_normalization_35", 0, 0, {}]]], "name": "leaky_re_lu_35"}, {"class_name": "Add", "config": {"trainable": true, "name": "add_15"}, "inbound_nodes": [[["activation_14", 0, 0, {}], ["leaky_re_lu_35", 0, 0, {}]]], "name": "add_15"}, {"class_name": "Activation", "config": {"activation": "linear", "trainable": true, "name": "activation_15"}, "inbound_nodes": [[["add_15", 0, 0, {}]]], "name": "activation_15"}, {"class_name": "Conv2D", "config": {"kernel_constraint": null, "kernel_initializer": {"class_name": "VarianceScaling", "config": {"distribution": "uniform", "scale": 1.0, "seed": null, "mode": "fan_avg"}}, "name": "conv2d_36", "bias_regularizer": null, "bias_constraint": null, "activation": "linear", "trainable": true, "data_format": "channels_last", "padding": "same", "strides": [1, 1], "dilation_rate": [1, 1], "kernel_regularizer": {"class_name": "L1L2", "config": {"l2": 0.0005000000237487257, "l1": 0.0}}, "filters": 256, "bias_initializer": {"class_name": "Zeros", "config": {}}, "use_bias": false, "activity_regularizer": null, "kernel_size": [1, 1]}, "inbound_nodes": [[["activation_15", 0, 0, {}]]], "name": "conv2d_36"}, {"class_name": "BatchNormalization", "config": {"beta_constraint": null, "gamma_initializer": {"class_name": "Ones", "config": {}}, "moving_mean_initializer": {"class_name": "Zeros", "config": {}}, "name": "batch_normalization_36", "epsilon": 0.001, "trainable": true, "moving_variance_initializer": {"class_name": "Ones", "config": {}}, "beta_initializer": {"class_name": "Zeros", "config": {}}, "scale": true, "axis": -1, "gamma_constraint": null, "gamma_regularizer": null, "beta_regularizer": null, "momentum": 0.99, "center": true}, "inbound_nodes": [[["conv2d_36", 0, 0, {}]]], "name": "batch_normalization_36"}, {"class_name": "LeakyReLU", "config": {"alpha": 0.10000000149011612, "trainable": true, "name": "leaky_re_lu_36"}, "inbound_nodes": [[["batch_normalization_36", 0, 0, {}]]], "name": "leaky_re_lu_36"}, {"class_name": "Conv2D", "config": {"kernel_constraint": null, "kernel_initializer": {"class_name": "VarianceScaling", "config": {"distribution": "uniform", "scale": 1.0, "seed": null, "mode": "fan_avg"}}, "name": "conv2d_37", "bias_regularizer": null, "bias_constraint": null, "activation": "linear", "trainable": true, "data_format": "channels_last", "padding": "same", "strides": [1, 1], "dilation_rate": [1, 1], "kernel_regularizer": {"class_name": "L1L2", "config": {"l2": 0.0005000000237487257, "l1": 0.0}}, "filters": 512, "bias_initializer": {"class_name": "Zeros", "config": {}}, "use_bias": false, "activity_regularizer": null, "kernel_size": [3, 3]}, "inbound_nodes": [[["leaky_re_lu_36", 0, 0, {}]]], "name": "conv2d_37"}, {"class_name": "BatchNormalization", "config": {"beta_constraint": null, "gamma_initializer": {"class_name": "Ones", "config": {}}, "moving_mean_initializer": {"class_name": "Zeros", "config": {}}, "name": "batch_normalization_37", "epsilon": 0.001, "trainable": true, "moving_variance_initializer": {"class_name": "Ones", "config": {}}, "beta_initializer": {"class_name": "Zeros", "config": {}}, "scale": true, "axis": -1, "gamma_constraint": null, "gamma_regularizer": null, "beta_regularizer": null, "momentum": 0.99, "center": true}, "inbound_nodes": [[["conv2d_37", 0, 0, {}]]], "name": "batch_normalization_37"}, {"class_name": "LeakyReLU", "config": {"alpha": 0.10000000149011612, "trainable": true, "name": "leaky_re_lu_37"}, "inbound_nodes": [[["batch_normalization_37", 0, 0, {}]]], "name": "leaky_re_lu_37"}, {"class_name": "Add", "config": {"trainable": true, "name": "add_16"}, "inbound_nodes": [[["activation_15", 0, 0, {}], ["leaky_re_lu_37", 0, 0, {}]]], "name": "add_16"}, {"class_name": "Activation", "config": {"activation": "linear", "trainable": true, "name": "activation_16"}, "inbound_nodes": [[["add_16", 0, 0, {}]]], "name": "activation_16"}, {"class_name": "Conv2D", "config": {"kernel_constraint": null, "kernel_initializer": {"class_name": "VarianceScaling", "config": {"distribution": "uniform", "scale": 1.0, "seed": null, "mode": "fan_avg"}}, "name": "conv2d_38", "bias_regularizer": null, "bias_constraint": null, "activation": "linear", "trainable": true, "data_format": "channels_last", "padding": "same", "strides": [1, 1], "dilation_rate": [1, 1], "kernel_regularizer": {"class_name": "L1L2", "config": {"l2": 0.0005000000237487257, "l1": 0.0}}, "filters": 256, "bias_initializer": {"class_name": "Zeros", "config": {}}, "use_bias": false, "activity_regularizer": null, "kernel_size": [1, 1]}, "inbound_nodes": [[["activation_16", 0, 0, {}]]], "name": "conv2d_38"}, {"class_name": "BatchNormalization", "config": {"beta_constraint": null, "gamma_initializer": {"class_name": "Ones", "config": {}}, "moving_mean_initializer": {"class_name": "Zeros", "config": {}}, "name": "batch_normalization_38", "epsilon": 0.001, "trainable": true, "moving_variance_initializer": {"class_name": "Ones", "config": {}}, "beta_initializer": {"class_name": "Zeros", "config": {}}, "scale": true, "axis": -1, "gamma_constraint": null, "gamma_regularizer": null, "beta_regularizer": null, "momentum": 0.99, "center": true}, "inbound_nodes": [[["conv2d_38", 0, 0, {}]]], "name": "batch_normalization_38"}, {"class_name": "LeakyReLU", "config": {"alpha": 0.10000000149011612, "trainable": true, "name": "leaky_re_lu_38"}, "inbound_nodes": [[["batch_normalization_38", 0, 0, {}]]], "name": "leaky_re_lu_38"}, {"class_name": "Conv2D", "config": {"kernel_constraint": null, "kernel_initializer": {"class_name": "VarianceScaling", "config": {"distribution": "uniform", "scale": 1.0, "seed": null, "mode": "fan_avg"}}, "name": "conv2d_39", "bias_regularizer": null, "bias_constraint": null, "activation": "linear", "trainable": true, "data_format": "channels_last", "padding": "same", "strides": [1, 1], "dilation_rate": [1, 1], "kernel_regularizer": {"class_name": "L1L2", "config": {"l2": 0.0005000000237487257, "l1": 0.0}}, "filters": 512, "bias_initializer": {"class_name": "Zeros", "config": {}}, "use_bias": false, "activity_regularizer": null, "kernel_size": [3, 3]}, "inbound_nodes": [[["leaky_re_lu_38", 0, 0, {}]]], "name": "conv2d_39"}, {"class_name": "BatchNormalization", "config": {"beta_constraint": null, "gamma_initializer": {"class_name": "Ones", "config": {}}, "moving_mean_initializer": {"class_name": "Zeros", "config": {}}, "name": "batch_normalization_39", "epsilon": 0.001, "trainable": true, "moving_variance_initializer": {"class_name": "Ones", "config": {}}, "beta_initializer": {"class_name": "Zeros", "config": {}}, "scale": true, "axis": -1, "gamma_constraint": null, "gamma_regularizer": null, "beta_regularizer": null, "momentum": 0.99, "center": true}, "inbound_nodes": [[["conv2d_39", 0, 0, {}]]], "name": "batch_normalization_39"}, {"class_name": "LeakyReLU", "config": {"alpha": 0.10000000149011612, "trainable": true, "name": "leaky_re_lu_39"}, "inbound_nodes": [[["batch_normalization_39", 0, 0, {}]]], "name": "leaky_re_lu_39"}, {"class_name": "Add", "config": {"trainable": true, "name": "add_17"}, "inbound_nodes": [[["activation_16", 0, 0, {}], ["leaky_re_lu_39", 0, 0, {}]]], "name": "add_17"}, {"class_name": "Activation", "config": {"activation": "linear", "trainable": true, "name": "activation_17"}, "inbound_nodes": [[["add_17", 0, 0, {}]]], "name": "activation_17"}, {"class_name": "Conv2D", "config": {"kernel_constraint": null, "kernel_initializer": {"class_name": "VarianceScaling", "config": {"distribution": "uniform", "scale": 1.0, "seed": null, "mode": "fan_avg"}}, "name": "conv2d_40", "bias_regularizer": null, "bias_constraint": null, "activation": "linear", "trainable": true, "data_format": "channels_last", "padding": "same", "strides": [1, 1], "dilation_rate": [1, 1], "kernel_regularizer": {"class_name": "L1L2", "config": {"l2": 0.0005000000237487257, "l1": 0.0}}, "filters": 256, "bias_initializer": {"class_name": "Zeros", "config": {}}, "use_bias": false, "activity_regularizer": null, "kernel_size": [1, 1]}, "inbound_nodes": [[["activation_17", 0, 0, {}]]], "name": "conv2d_40"}, {"class_name": "BatchNormalization", "config": {"beta_constraint": null, "gamma_initializer": {"class_name": "Ones", "config": {}}, "moving_mean_initializer": {"class_name": "Zeros", "config": {}}, "name": "batch_normalization_40", "epsilon": 0.001, "trainable": true, "moving_variance_initializer": {"class_name": "Ones", "config": {}}, "beta_initializer": {"class_name": "Zeros", "config": {}}, "scale": true, "axis": -1, "gamma_constraint": null, "gamma_regularizer": null, "beta_regularizer": null, "momentum": 0.99, "center": true}, "inbound_nodes": [[["conv2d_40", 0, 0, {}]]], "name": "batch_normalization_40"}, {"class_name": "LeakyReLU", "config": {"alpha": 0.10000000149011612, "trainable": true, "name": "leaky_re_lu_40"}, "inbound_nodes": [[["batch_normalization_40", 0, 0, {}]]], "name": "leaky_re_lu_40"}, {"class_name": "Conv2D", "config": {"kernel_constraint": null, "kernel_initializer": {"class_name": "VarianceScaling", "config": {"distribution": "uniform", "scale": 1.0, "seed": null, "mode": "fan_avg"}}, "name": "conv2d_41", "bias_regularizer": null, "bias_constraint": null, "activation": "linear", "trainable": true, "data_format": "channels_last", "padding": "same", "strides": [1, 1], "dilation_rate": [1, 1], "kernel_regularizer": {"class_name": "L1L2", "config": {"l2": 0.0005000000237487257, "l1": 0.0}}, "filters": 512, "bias_initializer": {"class_name": "Zeros", "config": {}}, "use_bias": false, "activity_regularizer": null, "kernel_size": [3, 3]}, "inbound_nodes": [[["leaky_re_lu_40", 0, 0, {}]]], "name": "conv2d_41"}, {"class_name": "BatchNormalization", "config": {"beta_constraint": null, "gamma_initializer": {"class_name": "Ones", "config": {}}, "moving_mean_initializer": {"class_name": "Zeros", "config": {}}, "name": "batch_normalization_41", "epsilon": 0.001, "trainable": true, "moving_variance_initializer": {"class_name": "Ones", "config": {}}, "beta_initializer": {"class_name": "Zeros", "config": {}}, "scale": true, "axis": -1, "gamma_constraint": null, "gamma_regularizer": null, "beta_regularizer": null, "momentum": 0.99, "center": true}, "inbound_nodes": [[["conv2d_41", 0, 0, {}]]], "name": "batch_normalization_41"}, {"class_name": "LeakyReLU", "config": {"alpha": 0.10000000149011612, "trainable": true, "name": "leaky_re_lu_41"}, "inbound_nodes": [[["batch_normalization_41", 0, 0, {}]]], "name": "leaky_re_lu_41"}, {"class_name": "Add", "config": {"trainable": true, "name": "add_18"}, "inbound_nodes": [[["activation_17", 0, 0, {}], ["leaky_re_lu_41", 0, 0, {}]]], "name": "add_18"}, {"class_name": "Activation", "config": {"activation": "linear", "trainable": true, "name": "activation_18"}, "inbound_nodes": [[["add_18", 0, 0, {}]]], "name": "activation_18"}, {"class_name": "Conv2D", "config": {"kernel_constraint": null, "kernel_initializer": {"class_name": "VarianceScaling", "config": {"distribution": "uniform", "scale": 1.0, "seed": null, "mode": "fan_avg"}}, "name": "conv2d_42", "bias_regularizer": null, "bias_constraint": null, "activation": "linear", "trainable": true, "data_format": "channels_last", "padding": "same", "strides": [1, 1], "dilation_rate": [1, 1], "kernel_regularizer": {"class_name": "L1L2", "config": {"l2": 0.0005000000237487257, "l1": 0.0}}, "filters": 256, "bias_initializer": {"class_name": "Zeros", "config": {}}, "use_bias": false, "activity_regularizer": null, "kernel_size": [1, 1]}, "inbound_nodes": [[["activation_18", 0, 0, {}]]], "name": "conv2d_42"}, {"class_name": "BatchNormalization", "config": {"beta_constraint": null, "gamma_initializer": {"class_name": "Ones", "config": {}}, "moving_mean_initializer": {"class_name": "Zeros", "config": {}}, "name": "batch_normalization_42", "epsilon": 0.001, "trainable": true, "moving_variance_initializer": {"class_name": "Ones", "config": {}}, "beta_initializer": {"class_name": "Zeros", "config": {}}, "scale": true, "axis": -1, "gamma_constraint": null, "gamma_regularizer": null, "beta_regularizer": null, "momentum": 0.99, "center": true}, "inbound_nodes": [[["conv2d_42", 0, 0, {}]]], "name": "batch_normalization_42"}, {"class_name": "LeakyReLU", "config": {"alpha": 0.10000000149011612, "trainable": true, "name": "leaky_re_lu_42"}, "inbound_nodes": [[["batch_normalization_42", 0, 0, {}]]], "name": "leaky_re_lu_42"}, {"class_name": "Conv2D", "config": {"kernel_constraint": null, "kernel_initializer": {"class_name": "VarianceScaling", "config": {"distribution": "uniform", "scale": 1.0, "seed": null, "mode": "fan_avg"}}, "name": "conv2d_43", "bias_regularizer": null, "bias_constraint": null, "activation": "linear", "trainable": true, "data_format": "channels_last", "padding": "same", "strides": [1, 1], "dilation_rate": [1, 1], "kernel_regularizer": {"class_name": "L1L2", "config": {"l2": 0.0005000000237487257, "l1": 0.0}}, "filters": 512, "bias_initializer": {"class_name": "Zeros", "config": {}}, "use_bias": false, "activity_regularizer": null, "kernel_size": [3, 3]}, "inbound_nodes": [[["leaky_re_lu_42", 0, 0, {}]]], "name": "conv2d_43"}, {"class_name": "BatchNormalization", "config": {"beta_constraint": null, "gamma_initializer": {"class_name": "Ones", "config": {}}, "moving_mean_initializer": {"class_name": "Zeros", "config": {}}, "name": "batch_normalization_43", "epsilon": 0.001, "trainable": true, "moving_variance_initializer": {"class_name": "Ones", "config": {}}, "beta_initializer": {"class_name": "Zeros", "config": {}}, "scale": true, "axis": -1, "gamma_constraint": null, "gamma_regularizer": null, "beta_regularizer": null, "momentum": 0.99, "center": true}, "inbound_nodes": [[["conv2d_43", 0, 0, {}]]], "name": "batch_normalization_43"}, {"class_name": "LeakyReLU", "config": {"alpha": 0.10000000149011612, "trainable": true, "name": "leaky_re_lu_43"}, "inbound_nodes": [[["batch_normalization_43", 0, 0, {}]]], "name": "leaky_re_lu_43"}, {"class_name": "Add", "config": {"trainable": true, "name": "add_19"}, "inbound_nodes": [[["activation_18", 0, 0, {}], ["leaky_re_lu_43", 0, 0, {}]]], "name": "add_19"}, {"class_name": "Activation", "config": {"activation": "linear", "trainable": true, "name": "activation_19"}, "inbound_nodes": [[["add_19", 0, 0, {}]]], "name": "activation_19"}, {"class_name": "ZeroPadding2D", "config": {"padding": [[1, 0], [1, 0]], "trainable": true, "name": "zero_padding2d_5", "data_format": "channels_last"}, "inbound_nodes": [[["activation_19", 0, 0, {}]]], "name": "zero_padding2d_5"}, {"class_name": "Conv2D", "config": {"kernel_constraint": null, "kernel_initializer": {"class_name": "VarianceScaling", "config": {"distribution": "uniform", "scale": 1.0, "seed": null, "mode": "fan_avg"}}, "name": "conv2d_44", "bias_regularizer": null, "bias_constraint": null, "activation": "linear", "trainable": true, "data_format": "channels_last", "padding": "valid", "strides": [2, 2], "dilation_rate": [1, 1], "kernel_regularizer": {"class_name": "L1L2", "config": {"l2": 0.0005000000237487257, "l1": 0.0}}, "filters": 1024, "bias_initializer": {"class_name": "Zeros", "config": {}}, "use_bias": false, "activity_regularizer": null, "kernel_size": [3, 3]}, "inbound_nodes": [[["zero_padding2d_5", 0, 0, {}]]], "name": "conv2d_44"}, {"class_name": "BatchNormalization", "config": {"beta_constraint": null, "gamma_initializer": {"class_name": "Ones", "config": {}}, "moving_mean_initializer": {"class_name": "Zeros", "config": {}}, "name": "batch_normalization_44", "epsilon": 0.001, "trainable": true, "moving_variance_initializer": {"class_name": "Ones", "config": {}}, "beta_initializer": {"class_name": "Zeros", "config": {}}, "scale": true, "axis": -1, "gamma_constraint": null, "gamma_regularizer": null, "beta_regularizer": null, "momentum": 0.99, "center": true}, "inbound_nodes": [[["conv2d_44", 0, 0, {}]]], "name": "batch_normalization_44"}, {"class_name": "LeakyReLU", "config": {"alpha": 0.10000000149011612, "trainable": true, "name": "leaky_re_lu_44"}, "inbound_nodes": [[["batch_normalization_44", 0, 0, {}]]], "name": "leaky_re_lu_44"}, {"class_name": "Conv2D", "config": {"kernel_constraint": null, "kernel_initializer": {"class_name": "VarianceScaling", "config": {"distribution": "uniform", "scale": 1.0, "seed": null, "mode": "fan_avg"}}, "name": "conv2d_45", "bias_regularizer": null, "bias_constraint": null, "activation": "linear", "trainable": true, "data_format": "channels_last", "padding": "same", "strides": [1, 1], "dilation_rate": [1, 1], "kernel_regularizer": {"class_name": "L1L2", "config": {"l2": 0.0005000000237487257, "l1": 0.0}}, "filters": 512, "bias_initializer": {"class_name": "Zeros", "config": {}}, "use_bias": false, "activity_regularizer": null, "kernel_size": [1, 1]}, "inbound_nodes": [[["leaky_re_lu_44", 0, 0, {}]]], "name": "conv2d_45"}, {"class_name": "BatchNormalization", "config": {"beta_constraint": null, "gamma_initializer": {"class_name": "Ones", "config": {}}, "moving_mean_initializer": {"class_name": "Zeros", "config": {}}, "name": "batch_normalization_45", "epsilon": 0.001, "trainable": true, "moving_variance_initializer": {"class_name": "Ones", "config": {}}, "beta_initializer": {"class_name": "Zeros", "config": {}}, "scale": true, "axis": -1, "gamma_constraint": null, "gamma_regularizer": null, "beta_regularizer": null, "momentum": 0.99, "center": true}, "inbound_nodes": [[["conv2d_45", 0, 0, {}]]], "name": "batch_normalization_45"}, {"class_name": "LeakyReLU", "config": {"alpha": 0.10000000149011612, "trainable": true, "name": "leaky_re_lu_45"}, "inbound_nodes": [[["batch_normalization_45", 0, 0, {}]]], "name": "leaky_re_lu_45"}, {"class_name": "Conv2D", "config": {"kernel_constraint": null, "kernel_initializer": {"class_name": "VarianceScaling", "config": {"distribution": "uniform", "scale": 1.0, "seed": null, "mode": "fan_avg"}}, "name": "conv2d_46", "bias_regularizer": null, "bias_constraint": null, "activation": "linear", "trainable": true, "data_format": "channels_last", "padding": "same", "strides": [1, 1], "dilation_rate": [1, 1], "kernel_regularizer": {"class_name": "L1L2", "config": {"l2": 0.0005000000237487257, "l1": 0.0}}, "filters": 1024, "bias_initializer": {"class_name": "Zeros", "config": {}}, "use_bias": false, "activity_regularizer": null, "kernel_size": [3, 3]}, "inbound_nodes": [[["leaky_re_lu_45", 0, 0, {}]]], "name": "conv2d_46"}, {"class_name": "BatchNormalization", "config": {"beta_constraint": null, "gamma_initializer": {"class_name": "Ones", "config": {}}, "moving_mean_initializer": {"class_name": "Zeros", "config": {}}, "name": "batch_normalization_46", "epsilon": 0.001, "trainable": true, "moving_variance_initializer": {"class_name": "Ones", "config": {}}, "beta_initializer": {"class_name": "Zeros", "config": {}}, "scale": true, "axis": -1, "gamma_constraint": null, "gamma_regularizer": null, "beta_regularizer": null, "momentum": 0.99, "center": true}, "inbound_nodes": [[["conv2d_46", 0, 0, {}]]], "name": "batch_normalization_46"}, {"class_name": "LeakyReLU", "config": {"alpha": 0.10000000149011612, "trainable": true, "name": "leaky_re_lu_46"}, "inbound_nodes": [[["batch_normalization_46", 0, 0, {}]]], "name": "leaky_re_lu_46"}, {"class_name": "Add", "config": {"trainable": true, "name": "add_20"}, "inbound_nodes": [[["leaky_re_lu_44", 0, 0, {}], ["leaky_re_lu_46", 0, 0, {}]]], "name": "add_20"}, {"class_name": "Activation", "config": {"activation": "linear", "trainable": true, "name": "activation_20"}, "inbound_nodes": [[["add_20", 0, 0, {}]]], "name": "activation_20"}, {"class_name": "Conv2D", "config": {"kernel_constraint": null, "kernel_initializer": {"class_name": "VarianceScaling", "config": {"distribution": "uniform", "scale": 1.0, "seed": null, "mode": "fan_avg"}}, "name": "conv2d_47", "bias_regularizer": null, "bias_constraint": null, "activation": "linear", "trainable": true, "data_format": "channels_last", "padding": "same", "strides": [1, 1], "dilation_rate": [1, 1], "kernel_regularizer": {"class_name": "L1L2", "config": {"l2": 0.0005000000237487257, "l1": 0.0}}, "filters": 512, "bias_initializer": {"class_name": "Zeros", "config": {}}, "use_bias": false, "activity_regularizer": null, "kernel_size": [1, 1]}, "inbound_nodes": [[["activation_20", 0, 0, {}]]], "name": "conv2d_47"}, {"class_name": "BatchNormalization", "config": {"beta_constraint": null, "gamma_initializer": {"class_name": "Ones", "config": {}}, "moving_mean_initializer": {"class_name": "Zeros", "config": {}}, "name": "batch_normalization_47", "epsilon": 0.001, "trainable": true, "moving_variance_initializer": {"class_name": "Ones", "config": {}}, "beta_initializer": {"class_name": "Zeros", "config": {}}, "scale": true, "axis": -1, "gamma_constraint": null, "gamma_regularizer": null, "beta_regularizer": null, "momentum": 0.99, "center": true}, "inbound_nodes": [[["conv2d_47", 0, 0, {}]]], "name": "batch_normalization_47"}, {"class_name": "LeakyReLU", "config": {"alpha": 0.10000000149011612, "trainable": true, "name": "leaky_re_lu_47"}, "inbound_nodes": [[["batch_normalization_47", 0, 0, {}]]], "name": "leaky_re_lu_47"}, {"class_name": "Conv2D", "config": {"kernel_constraint": null, "kernel_initializer": {"class_name": "VarianceScaling", "config": {"distribution": "uniform", "scale": 1.0, "seed": null, "mode": "fan_avg"}}, "name": "conv2d_48", "bias_regularizer": null, "bias_constraint": null, "activation": "linear", "trainable": true, "data_format": "channels_last", "padding": "same", "strides": [1, 1], "dilation_rate": [1, 1], "kernel_regularizer": {"class_name": "L1L2", "config": {"l2": 0.0005000000237487257, "l1": 0.0}}, "filters": 1024, "bias_initializer": {"class_name": "Zeros", "config": {}}, "use_bias": false, "activity_regularizer": null, "kernel_size": [3, 3]}, "inbound_nodes": [[["leaky_re_lu_47", 0, 0, {}]]], "name": "conv2d_48"}, {"class_name": "BatchNormalization", "config": {"beta_constraint": null, "gamma_initializer": {"class_name": "Ones", "config": {}}, "moving_mean_initializer": {"class_name": "Zeros", "config": {}}, "name": "batch_normalization_48", "epsilon": 0.001, "trainable": true, "moving_variance_initializer": {"class_name": "Ones", "config": {}}, "beta_initializer": {"class_name": "Zeros", "config": {}}, "scale": true, "axis": -1, "gamma_constraint": null, "gamma_regularizer": null, "beta_regularizer": null, "momentum": 0.99, "center": true}, "inbound_nodes": [[["conv2d_48", 0, 0, {}]]], "name": "batch_normalization_48"}, {"class_name": "LeakyReLU", "config": {"alpha": 0.10000000149011612, "trainable": true, "name": "leaky_re_lu_48"}, "inbound_nodes": [[["batch_normalization_48", 0, 0, {}]]], "name": "leaky_re_lu_48"}, {"class_name": "Add", "config": {"trainable": true, "name": "add_21"}, "inbound_nodes": [[["activation_20", 0, 0, {}], ["leaky_re_lu_48", 0, 0, {}]]], "name": "add_21"}, {"class_name": "Activation", "config": {"activation": "linear", "trainable": true, "name": "activation_21"}, "inbound_nodes": [[["add_21", 0, 0, {}]]], "name": "activation_21"}, {"class_name": "Conv2D", "config": {"kernel_constraint": null, "kernel_initializer": {"class_name": "VarianceScaling", "config": {"distribution": "uniform", "scale": 1.0, "seed": null, "mode": "fan_avg"}}, "name": "conv2d_49", "bias_regularizer": null, "bias_constraint": null, "activation": "linear", "trainable": true, "data_format": "channels_last", "padding": "same", "strides": [1, 1], "dilation_rate": [1, 1], "kernel_regularizer": {"class_name": "L1L2", "config": {"l2": 0.0005000000237487257, "l1": 0.0}}, "filters": 512, "bias_initializer": {"class_name": "Zeros", "config": {}}, "use_bias": false, "activity_regularizer": null, "kernel_size": [1, 1]}, "inbound_nodes": [[["activation_21", 0, 0, {}]]], "name": "conv2d_49"}, {"class_name": "BatchNormalization", "config": {"beta_constraint": null, "gamma_initializer": {"class_name": "Ones", "config": {}}, "moving_mean_initializer": {"class_name": "Zeros", "config": {}}, "name": "batch_normalization_49", "epsilon": 0.001, "trainable": true, "moving_variance_initializer": {"class_name": "Ones", "config": {}}, "beta_initializer": {"class_name": "Zeros", "config": {}}, "scale": true, "axis": -1, "gamma_constraint": null, "gamma_regularizer": null, "beta_regularizer": null, "momentum": 0.99, "center": true}, "inbound_nodes": [[["conv2d_49", 0, 0, {}]]], "name": "batch_normalization_49"}, {"class_name": "LeakyReLU", "config": {"alpha": 0.10000000149011612, "trainable": true, "name": "leaky_re_lu_49"}, "inbound_nodes": [[["batch_normalization_49", 0, 0, {}]]], "name": "leaky_re_lu_49"}, {"class_name": "Conv2D", "config": {"kernel_constraint": null, "kernel_initializer": {"class_name": "VarianceScaling", "config": {"distribution": "uniform", "scale": 1.0, "seed": null, "mode": "fan_avg"}}, "name": "conv2d_50", "bias_regularizer": null, "bias_constraint": null, "activation": "linear", "trainable": true, "data_format": "channels_last", "padding": "same", "strides": [1, 1], "dilation_rate": [1, 1], "kernel_regularizer": {"class_name": "L1L2", "config": {"l2": 0.0005000000237487257, "l1": 0.0}}, "filters": 1024, "bias_initializer": {"class_name": "Zeros", "config": {}}, "use_bias": false, "activity_regularizer": null, "kernel_size": [3, 3]}, "inbound_nodes": [[["leaky_re_lu_49", 0, 0, {}]]], "name": "conv2d_50"}, {"class_name": "BatchNormalization", "config": {"beta_constraint": null, "gamma_initializer": {"class_name": "Ones", "config": {}}, "moving_mean_initializer": {"class_name": "Zeros", "config": {}}, "name": "batch_normalization_50", "epsilon": 0.001, "trainable": true, "moving_variance_initializer": {"class_name": "Ones", "config": {}}, "beta_initializer": {"class_name": "Zeros", "config": {}}, "scale": true, "axis": -1, "gamma_constraint": null, "gamma_regularizer": null, "beta_regularizer": null, "momentum": 0.99, "center": true}, "inbound_nodes": [[["conv2d_50", 0, 0, {}]]], "name": "batch_normalization_50"}, {"class_name": "LeakyReLU", "config": {"alpha": 0.10000000149011612, "trainable": true, "name": "leaky_re_lu_50"}, "inbound_nodes": [[["batch_normalization_50", 0, 0, {}]]], "name": "leaky_re_lu_50"}, {"class_name": "Add", "config": {"trainable": true, "name": "add_22"}, "inbound_nodes": [[["activation_21", 0, 0, {}], ["leaky_re_lu_50", 0, 0, {}]]], "name": "add_22"}, {"class_name": "Activation", "config": {"activation": "linear", "trainable": true, "name": "activation_22"}, "inbound_nodes": [[["add_22", 0, 0, {}]]], "name": "activation_22"}, {"class_name": "Conv2D", "config": {"kernel_constraint": null, "kernel_initializer": {"class_name": "VarianceScaling", "config": {"distribution": "uniform", "scale": 1.0, "seed": null, "mode": "fan_avg"}}, "name": "conv2d_51", "bias_regularizer": null, "bias_constraint": null, "activation": "linear", "trainable": true, "data_format": "channels_last", "padding": "same", "strides": [1, 1], "dilation_rate": [1, 1], "kernel_regularizer": {"class_name": "L1L2", "config": {"l2": 0.0005000000237487257, "l1": 0.0}}, "filters": 512, "bias_initializer": {"class_name": "Zeros", "config": {}}, "use_bias": false, "activity_regularizer": null, "kernel_size": [1, 1]}, "inbound_nodes": [[["activation_22", 0, 0, {}]]], "name": "conv2d_51"}, {"class_name": "BatchNormalization", "config": {"beta_constraint": null, "gamma_initializer": {"class_name": "Ones", "config": {}}, "moving_mean_initializer": {"class_name": "Zeros", "config": {}}, "name": "batch_normalization_51", "epsilon": 0.001, "trainable": true, "moving_variance_initializer": {"class_name": "Ones", "config": {}}, "beta_initializer": {"class_name": "Zeros", "config": {}}, "scale": true, "axis": -1, "gamma_constraint": null, "gamma_regularizer": null, "beta_regularizer": null, "momentum": 0.99, "center": true}, "inbound_nodes": [[["conv2d_51", 0, 0, {}]]], "name": "batch_normalization_51"}, {"class_name": "LeakyReLU", "config": {"alpha": 0.10000000149011612, "trainable": true, "name": "leaky_re_lu_51"}, "inbound_nodes": [[["batch_normalization_51", 0, 0, {}]]], "name": "leaky_re_lu_51"}, {"class_name": "Conv2D", "config": {"kernel_constraint": null, "kernel_initializer": {"class_name": "VarianceScaling", "config": {"distribution": "uniform", "scale": 1.0, "seed": null, "mode": "fan_avg"}}, "name": "conv2d_52", "bias_regularizer": null, "bias_constraint": null, "activation": "linear", "trainable": true, "data_format": "channels_last", "padding": "same", "strides": [1, 1], "dilation_rate": [1, 1], "kernel_regularizer": {"class_name": "L1L2", "config": {"l2": 0.0005000000237487257, "l1": 0.0}}, "filters": 1024, "bias_initializer": {"class_name": "Zeros", "config": {}}, "use_bias": false, "activity_regularizer": null, "kernel_size": [3, 3]}, "inbound_nodes": [[["leaky_re_lu_51", 0, 0, {}]]], "name": "conv2d_52"}, {"class_name": "BatchNormalization", "config": {"beta_constraint": null, "gamma_initializer": {"class_name": "Ones", "config": {}}, "moving_mean_initializer": {"class_name": "Zeros", "config": {}}, "name": "batch_normalization_52", "epsilon": 0.001, "trainable": true, "moving_variance_initializer": {"class_name": "Ones", "config": {}}, "beta_initializer": {"class_name": "Zeros", "config": {}}, "scale": true, "axis": -1, "gamma_constraint": null, "gamma_regularizer": null, "beta_regularizer": null, "momentum": 0.99, "center": true}, "inbound_nodes": [[["conv2d_52", 0, 0, {}]]], "name": "batch_normalization_52"}, {"class_name": "LeakyReLU", "config": {"alpha": 0.10000000149011612, "trainable": true, "name": "leaky_re_lu_52"}, "inbound_nodes": [[["batch_normalization_52", 0, 0, {}]]], "name": "leaky_re_lu_52"}, {"class_name": "Add", "config": {"trainable": true, "name": "add_23"}, "inbound_nodes": [[["activation_22", 0, 0, {}], ["leaky_re_lu_52", 0, 0, {}]]], "name": "add_23"}, {"class_name": "Activation", "config": {"activation": "linear", "trainable": true, "name": "activation_23"}, "inbound_nodes": [[["add_23", 0, 0, {}]]], "name": "activation_23"}, {"class_name": "Conv2D", "config": {"kernel_constraint": null, "kernel_initializer": {"class_name": "VarianceScaling", "config": {"distribution": "uniform", "scale": 1.0, "seed": null, "mode": "fan_avg"}}, "name": "conv2d_53", "bias_regularizer": null, "bias_constraint": null, "activation": "linear", "trainable": true, "data_format": "channels_last", "padding": "same", "strides": [1, 1], "dilation_rate": [1, 1], "kernel_regularizer": {"class_name": "L1L2", "config": {"l2": 0.0005000000237487257, "l1": 0.0}}, "filters": 512, "bias_initializer": {"class_name": "Zeros", "config": {}}, "use_bias": false, "activity_regularizer": null, "kernel_size": [1, 1]}, "inbound_nodes": [[["activation_23", 0, 0, {}]]], "name": "conv2d_53"}, {"class_name": "BatchNormalization", "config": {"beta_constraint": null, "gamma_initializer": {"class_name": "Ones", "config": {}}, "moving_mean_initializer": {"class_name": "Zeros", "config": {}}, "name": "batch_normalization_53", "epsilon": 0.001, "trainable": true, "moving_variance_initializer": {"class_name": "Ones", "config": {}}, "beta_initializer": {"class_name": "Zeros", "config": {}}, "scale": true, "axis": -1, "gamma_constraint": null, "gamma_regularizer": null, "beta_regularizer": null, "momentum": 0.99, "center": true}, "inbound_nodes": [[["conv2d_53", 0, 0, {}]]], "name": "batch_normalization_53"}, {"class_name": "LeakyReLU", "config": {"alpha": 0.10000000149011612, "trainable": true, "name": "leaky_re_lu_53"}, "inbound_nodes": [[["batch_normalization_53", 0, 0, {}]]], "name": "leaky_re_lu_53"}, {"class_name": "Conv2D", "config": {"kernel_constraint": null, "kernel_initializer": {"class_name": "VarianceScaling", "config": {"distribution": "uniform", "scale": 1.0, "seed": null, "mode": "fan_avg"}}, "name": "conv2d_54", "bias_regularizer": null, "bias_constraint": null, "activation": "linear", "trainable": true, "data_format": "channels_last", "padding": "same", "strides": [1, 1], "dilation_rate": [1, 1], "kernel_regularizer": {"class_name": "L1L2", "config": {"l2": 0.0005000000237487257, "l1": 0.0}}, "filters": 1024, "bias_initializer": {"class_name": "Zeros", "config": {}}, "use_bias": false, "activity_regularizer": null, "kernel_size": [3, 3]}, "inbound_nodes": [[["leaky_re_lu_53", 0, 0, {}]]], "name": "conv2d_54"}, {"class_name": "BatchNormalization", "config": {"beta_constraint": null, "gamma_initializer": {"class_name": "Ones", "config": {}}, "moving_mean_initializer": {"class_name": "Zeros", "config": {}}, "name": "batch_normalization_54", "epsilon": 0.001, "trainable": true, "moving_variance_initializer": {"class_name": "Ones", "config": {}}, "beta_initializer": {"class_name": "Zeros", "config": {}}, "scale": true, "axis": -1, "gamma_constraint": null, "gamma_regularizer": null, "beta_regularizer": null, "momentum": 0.99, "center": true}, "inbound_nodes": [[["conv2d_54", 0, 0, {}]]], "name": "batch_normalization_54"}, {"class_name": "LeakyReLU", "config": {"alpha": 0.10000000149011612, "trainable": true, "name": "leaky_re_lu_54"}, "inbound_nodes": [[["batch_normalization_54", 0, 0, {}]]], "name": "leaky_re_lu_54"}, {"class_name": "Conv2D", "config": {"kernel_constraint": null, "kernel_initializer": {"class_name": "VarianceScaling", "config": {"distribution": "uniform", "scale": 1.0, "seed": null, "mode": "fan_avg"}}, "name": "conv2d_55", "bias_regularizer": null, "bias_constraint": null, "activation": "linear", "trainable": true, "data_format": "channels_last", "padding": "same", "strides": [1, 1], "dilation_rate": [1, 1], "kernel_regularizer": {"class_name": "L1L2", "config": {"l2": 0.0005000000237487257, "l1": 0.0}}, "filters": 512, "bias_initializer": {"class_name": "Zeros", "config": {}}, "use_bias": false, "activity_regularizer": null, "kernel_size": [1, 1]}, "inbound_nodes": [[["leaky_re_lu_54", 0, 0, {}]]], "name": "conv2d_55"}, {"class_name": "BatchNormalization", "config": {"beta_constraint": null, "gamma_initializer": {"class_name": "Ones", "config": {}}, "moving_mean_initializer": {"class_name": "Zeros", "config": {}}, "name": "batch_normalization_55", "epsilon": 0.001, "trainable": true, "moving_variance_initializer": {"class_name": "Ones", "config": {}}, "beta_initializer": {"class_name": "Zeros", "config": {}}, "scale": true, "axis": -1, "gamma_constraint": null, "gamma_regularizer": null, "beta_regularizer": null, "momentum": 0.99, "center": true}, "inbound_nodes": [[["conv2d_55", 0, 0, {}]]], "name": "batch_normalization_55"}, {"class_name": "LeakyReLU", "config": {"alpha": 0.10000000149011612, "trainable": true, "name": "leaky_re_lu_55"}, "inbound_nodes": [[["batch_normalization_55", 0, 0, {}]]], "name": "leaky_re_lu_55"}, {"class_name": "Conv2D", "config": {"kernel_constraint": null, "kernel_initializer": {"class_name": "VarianceScaling", "config": {"distribution": "uniform", "scale": 1.0, "seed": null, "mode": "fan_avg"}}, "name": "conv2d_56", "bias_regularizer": null, "bias_constraint": null, "activation": "linear", "trainable": true, "data_format": "channels_last", "padding": "same", "strides": [1, 1], "dilation_rate": [1, 1], "kernel_regularizer": {"class_name": "L1L2", "config": {"l2": 0.0005000000237487257, "l1": 0.0}}, "filters": 1024, "bias_initializer": {"class_name": "Zeros", "config": {}}, "use_bias": false, "activity_regularizer": null, "kernel_size": [3, 3]}, "inbound_nodes": [[["leaky_re_lu_55", 0, 0, {}]]], "name": "conv2d_56"}, {"class_name": "BatchNormalization", "config": {"beta_constraint": null, "gamma_initializer": {"class_name": "Ones", "config": {}}, "moving_mean_initializer": {"class_name": "Zeros", "config": {}}, "name": "batch_normalization_56", "epsilon": 0.001, "trainable": true, "moving_variance_initializer": {"class_name": "Ones", "config": {}}, "beta_initializer": {"class_name": "Zeros", "config": {}}, "scale": true, "axis": -1, "gamma_constraint": null, "gamma_regularizer": null, "beta_regularizer": null, "momentum": 0.99, "center": true}, "inbound_nodes": [[["conv2d_56", 0, 0, {}]]], "name": "batch_normalization_56"}, {"class_name": "LeakyReLU", "config": {"alpha": 0.10000000149011612, "trainable": true, "name": "leaky_re_lu_56"}, "inbound_nodes": [[["batch_normalization_56", 0, 0, {}]]], "name": "leaky_re_lu_56"}, {"class_name": "Conv2D", "config": {"kernel_constraint": null, "kernel_initializer": {"class_name": "VarianceScaling", "config": {"distribution": "uniform", "scale": 1.0, "seed": null, "mode": "fan_avg"}}, "name": "conv2d_57", "bias_regularizer": null, "bias_constraint": null, "activation": "linear", "trainable": true, "data_format": "channels_last", "padding": "same", "strides": [1, 1], "dilation_rate": [1, 1], "kernel_regularizer": {"class_name": "L1L2", "config": {"l2": 0.0005000000237487257, "l1": 0.0}}, "filters": 512, "bias_initializer": {"class_name": "Zeros", "config": {}}, "use_bias": false, "activity_regularizer": null, "kernel_size": [1, 1]}, "inbound_nodes": [[["leaky_re_lu_56", 0, 0, {}]]], "name": "conv2d_57"}, {"class_name": "BatchNormalization", "config": {"beta_constraint": null, "gamma_initializer": {"class_name": "Ones", "config": {}}, "moving_mean_initializer": {"class_name": "Zeros", "config": {}}, "name": "batch_normalization_57", "epsilon": 0.001, "trainable": true, "moving_variance_initializer": {"class_name": "Ones", "config": {}}, "beta_initializer": {"class_name": "Zeros", "config": {}}, "scale": true, "axis": -1, "gamma_constraint": null, "gamma_regularizer": null, "beta_regularizer": null, "momentum": 0.99, "center": true}, "inbound_nodes": [[["conv2d_57", 0, 0, {}]]], "name": "batch_normalization_57"}, {"class_name": "LeakyReLU", "config": {"alpha": 0.10000000149011612, "trainable": true, "name": "leaky_re_lu_57"}, "inbound_nodes": [[["batch_normalization_57", 0, 0, {}]]], "name": "leaky_re_lu_57"}, {"class_name": "Conv2D", "config": {"kernel_constraint": null, "kernel_initializer": {"class_name": "VarianceScaling", "config": {"distribution": "uniform", "scale": 1.0, "seed": null, "mode": "fan_avg"}}, "name": "conv2d_60", "bias_regularizer": null, "bias_constraint": null, "activation": "linear", "trainable": true, "data_format": "channels_last", "padding": "same", "strides": [1, 1], "dilation_rate": [1, 1], "kernel_regularizer": {"class_name": "L1L2", "config": {"l2": 0.0005000000237487257, "l1": 0.0}}, "filters": 256, "bias_initializer": {"class_name": "Zeros", "config": {}}, "use_bias": false, "activity_regularizer": null, "kernel_size": [1, 1]}, "inbound_nodes": [[["leaky_re_lu_57", 0, 0, {}]]], "name": "conv2d_60"}, {"class_name": "BatchNormalization", "config": {"beta_constraint": null, "gamma_initializer": {"class_name": "Ones", "config": {}}, "moving_mean_initializer": {"class_name": "Zeros", "config": {}}, "name": "batch_normalization_59", "epsilon": 0.001, "trainable": true, "moving_variance_initializer": {"class_name": "Ones", "config": {}}, "beta_initializer": {"class_name": "Zeros", "config": {}}, "scale": true, "axis": -1, "gamma_constraint": null, "gamma_regularizer": null, "beta_regularizer": null, "momentum": 0.99, "center": true}, "inbound_nodes": [[["conv2d_60", 0, 0, {}]]], "name": "batch_normalization_59"}, {"class_name": "LeakyReLU", "config": {"alpha": 0.10000000149011612, "trainable": true, "name": "leaky_re_lu_59"}, "inbound_nodes": [[["batch_normalization_59", 0, 0, {}]]], "name": "leaky_re_lu_59"}, {"class_name": "UpSampling2D", "config": {"trainable": true, "data_format": "channels_last", "name": "up_sampling2d_1", "size": [2, 2]}, "inbound_nodes": [[["leaky_re_lu_59", 0, 0, {}]]], "name": "up_sampling2d_1"}, {"class_name": "Concatenate", "config": {"trainable": true, "name": "concatenate_1", "axis": -1}, "inbound_nodes": [[["up_sampling2d_1", 0, 0, {}], ["leaky_re_lu_43", 0, 0, {}]]], "name": "concatenate_1"}, {"class_name": "Conv2D", "config": {"kernel_constraint": null, "kernel_initializer": {"class_name": "VarianceScaling", "config": {"distribution": "uniform", "scale": 1.0, "seed": null, "mode": "fan_avg"}}, "name": "conv2d_61", "bias_regularizer": null, "bias_constraint": null, "activation": "linear", "trainable": true, "data_format": "channels_last", "padding": "same", "strides": [1, 1], "dilation_rate": [1, 1], "kernel_regularizer": {"class_name": "L1L2", "config": {"l2": 0.0005000000237487257, "l1": 0.0}}, "filters": 256, "bias_initializer": {"class_name": "Zeros", "config": {}}, "use_bias": false, "activity_regularizer": null, "kernel_size": [1, 1]}, "inbound_nodes": [[["concatenate_1", 0, 0, {}]]], "name": "conv2d_61"}, {"class_name": "BatchNormalization", "config": {"beta_constraint": null, "gamma_initializer": {"class_name": "Ones", "config": {}}, "moving_mean_initializer": {"class_name": "Zeros", "config": {}}, "name": "batch_normalization_60", "epsilon": 0.001, "trainable": true, "moving_variance_initializer": {"class_name": "Ones", "config": {}}, "beta_initializer": {"class_name": "Zeros", "config": {}}, "scale": true, "axis": -1, "gamma_constraint": null, "gamma_regularizer": null, "beta_regularizer": null, "momentum": 0.99, "center": true}, "inbound_nodes": [[["conv2d_61", 0, 0, {}]]], "name": "batch_normalization_60"}, {"class_name": "LeakyReLU", "config": {"alpha": 0.10000000149011612, "trainable": true, "name": "leaky_re_lu_60"}, "inbound_nodes": [[["batch_normalization_60", 0, 0, {}]]], "name": "leaky_re_lu_60"}, {"class_name": "Conv2D", "config": {"kernel_constraint": null, "kernel_initializer": {"class_name": "VarianceScaling", "config": {"distribution": "uniform", "scale": 1.0, "seed": null, "mode": "fan_avg"}}, "name": "conv2d_62", "bias_regularizer": null, "bias_constraint": null, "activation": "linear", "trainable": true, "data_format": "channels_last", "padding": "same", "strides": [1, 1], "dilation_rate": [1, 1], "kernel_regularizer": {"class_name": "L1L2", "config": {"l2": 0.0005000000237487257, "l1": 0.0}}, "filters": 512, "bias_initializer": {"class_name": "Zeros", "config": {}}, "use_bias": false, "activity_regularizer": null, "kernel_size": [3, 3]}, "inbound_nodes": [[["leaky_re_lu_60", 0, 0, {}]]], "name": "conv2d_62"}, {"class_name": "BatchNormalization", "config": {"beta_constraint": null, "gamma_initializer": {"class_name": "Ones", "config": {}}, "moving_mean_initializer": {"class_name": "Zeros", "config": {}}, "name": "batch_normalization_61", "epsilon": 0.001, "trainable": true, "moving_variance_initializer": {"class_name": "Ones", "config": {}}, "beta_initializer": {"class_name": "Zeros", "config": {}}, "scale": true, "axis": -1, "gamma_constraint": null, "gamma_regularizer": null, "beta_regularizer": null, "momentum": 0.99, "center": true}, "inbound_nodes": [[["conv2d_62", 0, 0, {}]]], "name": "batch_normalization_61"}, {"class_name": "LeakyReLU", "config": {"alpha": 0.10000000149011612, "trainable": true, "name": "leaky_re_lu_61"}, "inbound_nodes": [[["batch_normalization_61", 0, 0, {}]]], "name": "leaky_re_lu_61"}, {"class_name": "Conv2D", "config": {"kernel_constraint": null, "kernel_initializer": {"class_name": "VarianceScaling", "config": {"distribution": "uniform", "scale": 1.0, "seed": null, "mode": "fan_avg"}}, "name": "conv2d_63", "bias_regularizer": null, "bias_constraint": null, "activation": "linear", "trainable": true, "data_format": "channels_last", "padding": "same", "strides": [1, 1], "dilation_rate": [1, 1], "kernel_regularizer": {"class_name": "L1L2", "config": {"l2": 0.0005000000237487257, "l1": 0.0}}, "filters": 256, "bias_initializer": {"class_name": "Zeros", "config": {}}, "use_bias": false, "activity_regularizer": null, "kernel_size": [1, 1]}, "inbound_nodes": [[["leaky_re_lu_61", 0, 0, {}]]], "name": "conv2d_63"}, {"class_name": "BatchNormalization", "config": {"beta_constraint": null, "gamma_initializer": {"class_name": "Ones", "config": {}}, "moving_mean_initializer": {"class_name": "Zeros", "config": {}}, "name": "batch_normalization_62", "epsilon": 0.001, "trainable": true, "moving_variance_initializer": {"class_name": "Ones", "config": {}}, "beta_initializer": {"class_name": "Zeros", "config": {}}, "scale": true, "axis": -1, "gamma_constraint": null, "gamma_regularizer": null, "beta_regularizer": null, "momentum": 0.99, "center": true}, "inbound_nodes": [[["conv2d_63", 0, 0, {}]]], "name": "batch_normalization_62"}, {"class_name": "LeakyReLU", "config": {"alpha": 0.10000000149011612, "trainable": true, "name": "leaky_re_lu_62"}, "inbound_nodes": [[["batch_normalization_62", 0, 0, {}]]], "name": "leaky_re_lu_62"}, {"class_name": "Conv2D", "config": {"kernel_constraint": null, "kernel_initializer": {"class_name": "VarianceScaling", "config": {"distribution": "uniform", "scale": 1.0, "seed": null, "mode": "fan_avg"}}, "name": "conv2d_64", "bias_regularizer": null, "bias_constraint": null, "activation": "linear", "trainable": true, "data_format": "channels_last", "padding": "same", "strides": [1, 1], "dilation_rate": [1, 1], "kernel_regularizer": {"class_name": "L1L2", "config": {"l2": 0.0005000000237487257, "l1": 0.0}}, "filters": 512, "bias_initializer": {"class_name": "Zeros", "config": {}}, "use_bias": false, "activity_regularizer": null, "kernel_size": [3, 3]}, "inbound_nodes": [[["leaky_re_lu_62", 0, 0, {}]]], "name": "conv2d_64"}, {"class_name": "BatchNormalization", "config": {"beta_constraint": null, "gamma_initializer": {"class_name": "Ones", "config": {}}, "moving_mean_initializer": {"class_name": "Zeros", "config": {}}, "name": "batch_normalization_63", "epsilon": 0.001, "trainable": true, "moving_variance_initializer": {"class_name": "Ones", "config": {}}, "beta_initializer": {"class_name": "Zeros", "config": {}}, "scale": true, "axis": -1, "gamma_constraint": null, "gamma_regularizer": null, "beta_regularizer": null, "momentum": 0.99, "center": true}, "inbound_nodes": [[["conv2d_64", 0, 0, {}]]], "name": "batch_normalization_63"}, {"class_name": "LeakyReLU", "config": {"alpha": 0.10000000149011612, "trainable": true, "name": "leaky_re_lu_63"}, "inbound_nodes": [[["batch_normalization_63", 0, 0, {}]]], "name": "leaky_re_lu_63"}, {"class_name": "Conv2D", "config": {"kernel_constraint": null, "kernel_initializer": {"class_name": "VarianceScaling", "config": {"distribution": "uniform", "scale": 1.0, "seed": null, "mode": "fan_avg"}}, "name": "conv2d_65", "bias_regularizer": null, "bias_constraint": null, "activation": "linear", "trainable": true, "data_format": "channels_last", "padding": "same", "strides": [1, 1], "dilation_rate": [1, 1], "kernel_regularizer": {"class_name": "L1L2", "config": {"l2": 0.0005000000237487257, "l1": 0.0}}, "filters": 256, "bias_initializer": {"class_name": "Zeros", "config": {}}, "use_bias": false, "activity_regularizer": null, "kernel_size": [1, 1]}, "inbound_nodes": [[["leaky_re_lu_63", 0, 0, {}]]], "name": "conv2d_65"}, {"class_name": "BatchNormalization", "config": {"beta_constraint": null, "gamma_initializer": {"class_name": "Ones", "config": {}}, "moving_mean_initializer": {"class_name": "Zeros", "config": {}}, "name": "batch_normalization_64", "epsilon": 0.001, "trainable": true, "moving_variance_initializer": {"class_name": "Ones", "config": {}}, "beta_initializer": {"class_name": "Zeros", "config": {}}, "scale": true, "axis": -1, "gamma_constraint": null, "gamma_regularizer": null, "beta_regularizer": null, "momentum": 0.99, "center": true}, "inbound_nodes": [[["conv2d_65", 0, 0, {}]]], "name": "batch_normalization_64"}, {"class_name": "LeakyReLU", "config": {"alpha": 0.10000000149011612, "trainable": true, "name": "leaky_re_lu_64"}, "inbound_nodes": [[["batch_normalization_64", 0, 0, {}]]], "name": "leaky_re_lu_64"}, {"class_name": "Conv2D", "config": {"kernel_constraint": null, "kernel_initializer": {"class_name": "VarianceScaling", "config": {"distribution": "uniform", "scale": 1.0, "seed": null, "mode": "fan_avg"}}, "name": "conv2d_68", "bias_regularizer": null, "bias_constraint": null, "activation": "linear", "trainable": true, "data_format": "channels_last", "padding": "same", "strides": [1, 1], "dilation_rate": [1, 1], "kernel_regularizer": {"class_name": "L1L2", "config": {"l2": 0.0005000000237487257, "l1": 0.0}}, "filters": 128, "bias_initializer": {"class_name": "Zeros", "config": {}}, "use_bias": false, "activity_regularizer": null, "kernel_size": [1, 1]}, "inbound_nodes": [[["leaky_re_lu_64", 0, 0, {}]]], "name": "conv2d_68"}, {"class_name": "BatchNormalization", "config": {"beta_constraint": null, "gamma_initializer": {"class_name": "Ones", "config": {}}, "moving_mean_initializer": {"class_name": "Zeros", "config": {}}, "name": "batch_normalization_66", "epsilon": 0.001, "trainable": true, "moving_variance_initializer": {"class_name": "Ones", "config": {}}, "beta_initializer": {"class_name": "Zeros", "config": {}}, "scale": true, "axis": -1, "gamma_constraint": null, "gamma_regularizer": null, "beta_regularizer": null, "momentum": 0.99, "center": true}, "inbound_nodes": [[["conv2d_68", 0, 0, {}]]], "name": "batch_normalization_66"}, {"class_name": "LeakyReLU", "config": {"alpha": 0.10000000149011612, "trainable": true, "name": "leaky_re_lu_66"}, "inbound_nodes": [[["batch_normalization_66", 0, 0, {}]]], "name": "leaky_re_lu_66"}, {"class_name": "UpSampling2D", "config": {"trainable": true, "data_format": "channels_last", "name": "up_sampling2d_2", "size": [2, 2]}, "inbound_nodes": [[["leaky_re_lu_66", 0, 0, {}]]], "name": "up_sampling2d_2"}, {"class_name": "Concatenate", "config": {"trainable": true, "name": "concatenate_2", "axis": -1}, "inbound_nodes": [[["up_sampling2d_2", 0, 0, {}], ["leaky_re_lu_26", 0, 0, {}]]], "name": "concatenate_2"}, {"class_name": "Conv2D", "config": {"kernel_constraint": null, "kernel_initializer": {"class_name": "VarianceScaling", "config": {"distribution": "uniform", "scale": 1.0, "seed": null, "mode": "fan_avg"}}, "name": "conv2d_69", "bias_regularizer": null, "bias_constraint": null, "activation": "linear", "trainable": true, "data_format": "channels_last", "padding": "same", "strides": [1, 1], "dilation_rate": [1, 1], "kernel_regularizer": {"class_name": "L1L2", "config": {"l2": 0.0005000000237487257, "l1": 0.0}}, "filters": 128, "bias_initializer": {"class_name": "Zeros", "config": {}}, "use_bias": false, "activity_regularizer": null, "kernel_size": [1, 1]}, "inbound_nodes": [[["concatenate_2", 0, 0, {}]]], "name": "conv2d_69"}, {"class_name": "BatchNormalization", "config": {"beta_constraint": null, "gamma_initializer": {"class_name": "Ones", "config": {}}, "moving_mean_initializer": {"class_name": "Zeros", "config": {}}, "name": "batch_normalization_67", "epsilon": 0.001, "trainable": true, "moving_variance_initializer": {"class_name": "Ones", "config": {}}, "beta_initializer": {"class_name": "Zeros", "config": {}}, "scale": true, "axis": -1, "gamma_constraint": null, "gamma_regularizer": null, "beta_regularizer": null, "momentum": 0.99, "center": true}, "inbound_nodes": [[["conv2d_69", 0, 0, {}]]], "name": "batch_normalization_67"}, {"class_name": "LeakyReLU", "config": {"alpha": 0.10000000149011612, "trainable": true, "name": "leaky_re_lu_67"}, "inbound_nodes": [[["batch_normalization_67", 0, 0, {}]]], "name": "leaky_re_lu_67"}, {"class_name": "Conv2D", "config": {"kernel_constraint": null, "kernel_initializer": {"class_name": "VarianceScaling", "config": {"distribution": "uniform", "scale": 1.0, "seed": null, "mode": "fan_avg"}}, "name": "conv2d_70", "bias_regularizer": null, "bias_constraint": null, "activation": "linear", "trainable": true, "data_format": "channels_last", "padding": "same", "strides": [1, 1], "dilation_rate": [1, 1], "kernel_regularizer": {"class_name": "L1L2", "config": {"l2": 0.0005000000237487257, "l1": 0.0}}, "filters": 256, "bias_initializer": {"class_name": "Zeros", "config": {}}, "use_bias": false, "activity_regularizer": null, "kernel_size": [3, 3]}, "inbound_nodes": [[["leaky_re_lu_67", 0, 0, {}]]], "name": "conv2d_70"}, {"class_name": "BatchNormalization", "config": {"beta_constraint": null, "gamma_initializer": {"class_name": "Ones", "config": {}}, "moving_mean_initializer": {"class_name": "Zeros", "config": {}}, "name": "batch_normalization_68", "epsilon": 0.001, "trainable": true, "moving_variance_initializer": {"class_name": "Ones", "config": {}}, "beta_initializer": {"class_name": "Zeros", "config": {}}, "scale": true, "axis": -1, "gamma_constraint": null, "gamma_regularizer": null, "beta_regularizer": null, "momentum": 0.99, "center": true}, "inbound_nodes": [[["conv2d_70", 0, 0, {}]]], "name": "batch_normalization_68"}, {"class_name": "LeakyReLU", "config": {"alpha": 0.10000000149011612, "trainable": true, "name": "leaky_re_lu_68"}, "inbound_nodes": [[["batch_normalization_68", 0, 0, {}]]], "name": "leaky_re_lu_68"}, {"class_name": "Conv2D", "config": {"kernel_constraint": null, "kernel_initializer": {"class_name": "VarianceScaling", "config": {"distribution": "uniform", "scale": 1.0, "seed": null, "mode": "fan_avg"}}, "name": "conv2d_71", "bias_regularizer": null, "bias_constraint": null, "activation": "linear", "trainable": true, "data_format": "channels_last", "padding": "same", "strides": [1, 1], "dilation_rate": [1, 1], "kernel_regularizer": {"class_name": "L1L2", "config": {"l2": 0.0005000000237487257, "l1": 0.0}}, "filters": 128, "bias_initializer": {"class_name": "Zeros", "config": {}}, "use_bias": false, "activity_regularizer": null, "kernel_size": [1, 1]}, "inbound_nodes": [[["leaky_re_lu_68", 0, 0, {}]]], "name": "conv2d_71"}, {"class_name": "BatchNormalization", "config": {"beta_constraint": null, "gamma_initializer": {"class_name": "Ones", "config": {}}, "moving_mean_initializer": {"class_name": "Zeros", "config": {}}, "name": "batch_normalization_69", "epsilon": 0.001, "trainable": true, "moving_variance_initializer": {"class_name": "Ones", "config": {}}, "beta_initializer": {"class_name": "Zeros", "config": {}}, "scale": true, "axis": -1, "gamma_constraint": null, "gamma_regularizer": null, "beta_regularizer": null, "momentum": 0.99, "center": true}, "inbound_nodes": [[["conv2d_71", 0, 0, {}]]], "name": "batch_normalization_69"}, {"class_name": "LeakyReLU", "config": {"alpha": 0.10000000149011612, "trainable": true, "name": "leaky_re_lu_69"}, "inbound_nodes": [[["batch_normalization_69", 0, 0, {}]]], "name": "leaky_re_lu_69"}, {"class_name": "Conv2D", "config": {"kernel_constraint": null, "kernel_initializer": {"class_name": "VarianceScaling", "config": {"distribution": "uniform", "scale": 1.0, "seed": null, "mode": "fan_avg"}}, "name": "conv2d_72", "bias_regularizer": null, "bias_constraint": null, "activation": "linear", "trainable": true, "data_format": "channels_last", "padding": "same", "strides": [1, 1], "dilation_rate": [1, 1], "kernel_regularizer": {"class_name": "L1L2", "config": {"l2": 0.0005000000237487257, "l1": 0.0}}, "filters": 256, "bias_initializer": {"class_name": "Zeros", "config": {}}, "use_bias": false, "activity_regularizer": null, "kernel_size": [3, 3]}, "inbound_nodes": [[["leaky_re_lu_69", 0, 0, {}]]], "name": "conv2d_72"}, {"class_name": "BatchNormalization", "config": {"beta_constraint": null, "gamma_initializer": {"class_name": "Ones", "config": {}}, "moving_mean_initializer": {"class_name": "Zeros", "config": {}}, "name": "batch_normalization_70", "epsilon": 0.001, "trainable": true, "moving_variance_initializer": {"class_name": "Ones", "config": {}}, "beta_initializer": {"class_name": "Zeros", "config": {}}, "scale": true, "axis": -1, "gamma_constraint": null, "gamma_regularizer": null, "beta_regularizer": null, "momentum": 0.99, "center": true}, "inbound_nodes": [[["conv2d_72", 0, 0, {}]]], "name": "batch_normalization_70"}, {"class_name": "LeakyReLU", "config": {"alpha": 0.10000000149011612, "trainable": true, "name": "leaky_re_lu_70"}, "inbound_nodes": [[["batch_normalization_70", 0, 0, {}]]], "name": "leaky_re_lu_70"}, {"class_name": "Conv2D", "config": {"kernel_constraint": null, "kernel_initializer": {"class_name": "VarianceScaling", "config": {"distribution": "uniform", "scale": 1.0, "seed": null, "mode": "fan_avg"}}, "name": "conv2d_73", "bias_regularizer": null, "bias_constraint": null, "activation": "linear", "trainable": true, "data_format": "channels_last", "padding": "same", "strides": [1, 1], "dilation_rate": [1, 1], "kernel_regularizer": {"class_name": "L1L2", "config": {"l2": 0.0005000000237487257, "l1": 0.0}}, "filters": 128, "bias_initializer": {"class_name": "Zeros", "config": {}}, "use_bias": false, "activity_regularizer": null, "kernel_size": [1, 1]}, "inbound_nodes": [[["leaky_re_lu_70", 0, 0, {}]]], "name": "conv2d_73"}, {"class_name": "BatchNormalization", "config": {"beta_constraint": null, "gamma_initializer": {"class_name": "Ones", "config": {}}, "moving_mean_initializer": {"class_name": "Zeros", "config": {}}, "name": "batch_normalization_71", "epsilon": 0.001, "trainable": true, "moving_variance_initializer": {"class_name": "Ones", "config": {}}, "beta_initializer": {"class_name": "Zeros", "config": {}}, "scale": true, "axis": -1, "gamma_constraint": null, "gamma_regularizer": null, "beta_regularizer": null, "momentum": 0.99, "center": true}, "inbound_nodes": [[["conv2d_73", 0, 0, {}]]], "name": "batch_normalization_71"}, {"class_name": "LeakyReLU", "config": {"alpha": 0.10000000149011612, "trainable": true, "name": "leaky_re_lu_71"}, "inbound_nodes": [[["batch_normalization_71", 0, 0, {}]]], "name": "leaky_re_lu_71"}, {"class_name": "Conv2D", "config": {"kernel_constraint": null, "kernel_initializer": {"class_name": "VarianceScaling", "config": {"distribution": "uniform", "scale": 1.0, "seed": null, "mode": "fan_avg"}}, "name": "conv2d_58", "bias_regularizer": null, "bias_constraint": null, "activation": "linear", "trainable": true, "data_format": "channels_last", "padding": "same", "strides": [1, 1], "dilation_rate": [1, 1], "kernel_regularizer": {"class_name": "L1L2", "config": {"l2": 0.0005000000237487257, "l1": 0.0}}, "filters": 1024, "bias_initializer": {"class_name": "Zeros", "config": {}}, "use_bias": false, "activity_regularizer": null, "kernel_size": [3, 3]}, "inbound_nodes": [[["leaky_re_lu_57", 0, 0, {}]]], "name": "conv2d_58"}, {"class_name": "Conv2D", "config": {"kernel_constraint": null, "kernel_initializer": {"class_name": "VarianceScaling", "config": {"distribution": "uniform", "scale": 1.0, "seed": null, "mode": "fan_avg"}}, "name": "conv2d_66", "bias_regularizer": null, "bias_constraint": null, "activation": "linear", "trainable": true, "data_format": "channels_last", "padding": "same", "strides": [1, 1], "dilation_rate": [1, 1], "kernel_regularizer": {"class_name": "L1L2", "config": {"l2": 0.0005000000237487257, "l1": 0.0}}, "filters": 512, "bias_initializer": {"class_name": "Zeros", "config": {}}, "use_bias": false, "activity_regularizer": null, "kernel_size": [3, 3]}, "inbound_nodes": [[["leaky_re_lu_64", 0, 0, {}]]], "name": "conv2d_66"}, {"class_name": "Conv2D", "config": {"kernel_constraint": null, "kernel_initializer": {"class_name": "VarianceScaling", "config": {"distribution": "uniform", "scale": 1.0, "seed": null, "mode": "fan_avg"}}, "name": "conv2d_74", "bias_regularizer": null, "bias_constraint": null, "activation": "linear", "trainable": true, "data_format": "channels_last", "padding": "same", "strides": [1, 1], "dilation_rate": [1, 1], "kernel_regularizer": {"class_name": "L1L2", "config": {"l2": 0.0005000000237487257, "l1": 0.0}}, "filters": 256, "bias_initializer": {"class_name": "Zeros", "config": {}}, "use_bias": false, "activity_regularizer": null, "kernel_size": [3, 3]}, "inbound_nodes": [[["leaky_re_lu_71", 0, 0, {}]]], "name": "conv2d_74"}, {"class_name": "BatchNormalization", "config": {"beta_constraint": null, "gamma_initializer": {"class_name": "Ones", "config": {}}, "moving_mean_initializer": {"class_name": "Zeros", "config": {}}, "name": "batch_normalization_58", "epsilon": 0.001, "trainable": true, "moving_variance_initializer": {"class_name": "Ones", "config": {}}, "beta_initializer": {"class_name": "Zeros", "config": {}}, "scale": true, "axis": -1, "gamma_constraint": null, "gamma_regularizer": null, "beta_regularizer": null, "momentum": 0.99, "center": true}, "inbound_nodes": [[["conv2d_58", 0, 0, {}]]], "name": "batch_normalization_58"}, {"class_name": "BatchNormalization", "config": {"beta_constraint": null, "gamma_initializer": {"class_name": "Ones", "config": {}}, "moving_mean_initializer": {"class_name": "Zeros", "config": {}}, "name": "batch_normalization_65", "epsilon": 0.001, "trainable": true, "moving_variance_initializer": {"class_name": "Ones", "config": {}}, "beta_initializer": {"class_name": "Zeros", "config": {}}, "scale": true, "axis": -1, "gamma_constraint": null, "gamma_regularizer": null, "beta_regularizer": null, "momentum": 0.99, "center": true}, "inbound_nodes": [[["conv2d_66", 0, 0, {}]]], "name": "batch_normalization_65"}, {"class_name": "BatchNormalization", "config": {"beta_constraint": null, "gamma_initializer": {"class_name": "Ones", "config": {}}, "moving_mean_initializer": {"class_name": "Zeros", "config": {}}, "name": "batch_normalization_72", "epsilon": 0.001, "trainable": true, "moving_variance_initializer": {"class_name": "Ones", "config": {}}, "beta_initializer": {"class_name": "Zeros", "config": {}}, "scale": true, "axis": -1, "gamma_constraint": null, "gamma_regularizer": null, "beta_regularizer": null, "momentum": 0.99, "center": true}, "inbound_nodes": [[["conv2d_74", 0, 0, {}]]], "name": "batch_normalization_72"}, {"class_name": "LeakyReLU", "config": {"alpha": 0.10000000149011612, "trainable": true, "name": "leaky_re_lu_58"}, "inbound_nodes": [[["batch_normalization_58", 0, 0, {}]]], "name": "leaky_re_lu_58"}, {"class_name": "LeakyReLU", "config": {"alpha": 0.10000000149011612, "trainable": true, "name": "leaky_re_lu_65"}, "inbound_nodes": [[["batch_normalization_65", 0, 0, {}]]], "name": "leaky_re_lu_65"}, {"class_name": "LeakyReLU", "config": {"alpha": 0.10000000149011612, "trainable": true, "name": "leaky_re_lu_72"}, "inbound_nodes": [[["batch_normalization_72", 0, 0, {}]]], "name": "leaky_re_lu_72"}, {"class_name": "Conv2D", "config": {"kernel_constraint": null, "kernel_initializer": {"class_name": "VarianceScaling", "config": {"distribution": "uniform", "scale": 1.0, "seed": null, "mode": "fan_avg"}}, "name": "conv2d_59", "bias_regularizer": null, "bias_constraint": null, "activation": "linear", "trainable": true, "data_format": "channels_last", "padding": "same", "strides": [1, 1], "dilation_rate": [1, 1], "kernel_regularizer": {"class_name": "L1L2", "config": {"l2": 0.0005000000237487257, "l1": 0.0}}, "filters": 255, "bias_initializer": {"class_name": "Zeros", "config": {}}, "use_bias": true, "activity_regularizer": null, "kernel_size": [1, 1]}, "inbound_nodes": [[["leaky_re_lu_58", 0, 0, {}]]], "name": "conv2d_59"}, {"class_name": "Conv2D", "config": {"kernel_constraint": null, "kernel_initializer": {"class_name": "VarianceScaling", "config": {"distribution": "uniform", "scale": 1.0, "seed": null, "mode": "fan_avg"}}, "name": "conv2d_67", "bias_regularizer": null, "bias_constraint": null, "activation": "linear", "trainable": true, "data_format": "channels_last", "padding": "same", "strides": [1, 1], "dilation_rate": [1, 1], "kernel_regularizer": {"class_name": "L1L2", "config": {"l2": 0.0005000000237487257, "l1": 0.0}}, "filters": 255, "bias_initializer": {"class_name": "Zeros", "config": {}}, "use_bias": true, "activity_regularizer": null, "kernel_size": [1, 1]}, "inbound_nodes": [[["leaky_re_lu_65", 0, 0, {}]]], "name": "conv2d_67"}, {"class_name": "Conv2D", "config": {"kernel_constraint": null, "kernel_initializer": {"class_name": "VarianceScaling", "config": {"distribution": "uniform", "scale": 1.0, "seed": null, "mode": "fan_avg"}}, "name": "conv2d_75", "bias_regularizer": null, "bias_constraint": null, "activation": "linear", "trainable": true, "data_format": "channels_last", "padding": "same", "strides": [1, 1], "dilation_rate": [1, 1], "kernel_regularizer": {"class_name": "L1L2", "config": {"l2": 0.0005000000237487257, "l1": 0.0}}, "filters": 255, "bias_initializer": {"class_name": "Zeros", "config": {}}, "use_bias": true, "activity_regularizer": null, "kernel_size": [1, 1]}, "inbound_nodes": [[["leaky_re_lu_72", 0, 0, {}]]], "name": "conv2d_75"}, {"class_name": "Reshape", "config": {"target_shape": [13, 13, 3, 85], "trainable": true, "name": "reshape_1"}, "inbound_nodes": [[["conv2d_59", 0, 0, {}]]], "name": "reshape_1"}, {"class_name": "Reshape", "config": {"target_shape": [26, 26, 3, 85], "trainable": true, "name": "reshape_2"}, "inbound_nodes": [[["conv2d_67", 0, 0, {}]]], "name": "reshape_2"}, {"class_name": "Reshape", "config": {"target_shape": [52, 52, 3, 85], "trainable": true, "name": "reshape_3"}, "inbound_nodes": [[["conv2d_75", 0, 0, {}]]], "name": "reshape_3"}], "input_layers": [["input_1", 0, 0]], "output_layers": [["reshape_1", 0, 0], ["reshape_2", 0, 0], ["reshape_3", 0, 0]], "name": "YOLOv3"}, "backend": "tensorflow"}
